{"format": "graph-model", "generatedBy": "2.5.0", "convertedBy": "TensorFlow.js Converter v3.0.0", "signature": {"inputs": {"inputs:0": {"name": "inputs:0", "dtype": "DT_FLOAT", "tensorShape": {"dim": [{"size": "-1"}, {"size": "224"}, {"size": "224"}, {"size": "3"}]}}}, "outputs": {"Identity:0": {"name": "Identity:0", "dtype": "DT_FLOAT", "tensorShape": {"dim": [{"size": "-1"}, {"size": "1280"}]}}}}, "modelTopology": {"node": [{"name": "inputs", "op": "Placeholder", "attr": {"shape": {"shape": {"dim": [{"size": "-1"}, {"size": "224"}, {"size": "224"}, {"size": "3"}]}}, "dtype": {"type": "DT_FLOAT"}}}, {"name": "StatefulPartitionedCall/StatefulPartitionedCall/predict/MobilenetV3/Conv/Conv2D_weights", "op": "Const", "attr": {"dtype": {"type": "DT_FLOAT"}, "value": {"tensor": {"dtype": "DT_FLOAT", "tensorShape": {"dim": [{"size": "3"}, {"size": "3"}, {"size": "3"}, {"size": "16"}]}}}}}, {"name": "StatefulPartitionedCall/StatefulPartitionedCall/predict/MobilenetV3/Conv/Conv2D_bn_offset", "op": "Const", "attr": {"value": {"tensor": {"dtype": "DT_FLOAT", "tensorShape": {"dim": [{"size": "16"}]}}}, "dtype": {"type": "DT_FLOAT"}}}, {"name": "StatefulPartitionedCall/StatefulPartitionedCall/predict/MobilenetV3/expanded_conv/depthwise/depthwise_weights", "op": "Const", "attr": {"dtype": {"type": "DT_FLOAT"}, "value": {"tensor": {"dtype": "DT_FLOAT", "tensorShape": {"dim": [{"size": "3"}, {"size": "3"}, {"size": "16"}, {"size": "1"}]}}}}}, {"name": "StatefulPartitionedCall/StatefulPartitionedCall/predict/MobilenetV3/expanded_conv/depthwise/depthwise_bn_offset", "op": "Const", "attr": {"value": {"tensor": {"dtype": "DT_FLOAT", "tensorShape": {"dim": [{"size": "16"}]}}}, "dtype": {"type": "DT_FLOAT"}}}, {"name": "StatefulPartitionedCall/StatefulPartitionedCall/predict/MobilenetV3/expanded_conv/project/Conv2D_weights", "op": "Const", "attr": {"value": {"tensor": {"dtype": "DT_FLOAT", "tensorShape": {"dim": [{"size": "1"}, {"size": "1"}, {"size": "16"}, {"size": "16"}]}}}, "dtype": {"type": "DT_FLOAT"}}}, {"name": "StatefulPartitionedCall/StatefulPartitionedCall/predict/MobilenetV3/expanded_conv/project/Conv2D_bn_offset", "op": "Const", "attr": {"value": {"tensor": {"dtype": "DT_FLOAT", "tensorShape": {"dim": [{"size": "16"}]}}}, "dtype": {"type": "DT_FLOAT"}}}, {"name": "StatefulPartitionedCall/StatefulPartitionedCall/predict/MobilenetV3/expanded_conv_1/expand/Conv2D_weights", "op": "Const", "attr": {"value": {"tensor": {"dtype": "DT_FLOAT", "tensorShape": {"dim": [{"size": "1"}, {"size": "1"}, {"size": "16"}, {"size": "64"}]}}}, "dtype": {"type": "DT_FLOAT"}}}, {"name": "StatefulPartitionedCall/StatefulPartitionedCall/predict/MobilenetV3/expanded_conv_1/expand/Conv2D_bn_offset", "op": "Const", "attr": {"value": {"tensor": {"dtype": "DT_FLOAT", "tensorShape": {"dim": [{"size": "64"}]}}}, "dtype": {"type": "DT_FLOAT"}}}, {"name": "StatefulPartitionedCall/StatefulPartitionedCall/predict/MobilenetV3/expanded_conv_1/depthwise/depthwise_weights", "op": "Const", "attr": {"value": {"tensor": {"dtype": "DT_FLOAT", "tensorShape": {"dim": [{"size": "3"}, {"size": "3"}, {"size": "64"}, {"size": "1"}]}}}, "dtype": {"type": "DT_FLOAT"}}}, {"name": "StatefulPartitionedCall/StatefulPartitionedCall/predict/MobilenetV3/expanded_conv_1/depthwise/depthwise_bn_offset", "op": "Const", "attr": {"dtype": {"type": "DT_FLOAT"}, "value": {"tensor": {"dtype": "DT_FLOAT", "tensorShape": {"dim": [{"size": "64"}]}}}}}, {"name": "StatefulPartitionedCall/StatefulPartitionedCall/predict/MobilenetV3/expanded_conv_1/project/Conv2D_weights", "op": "Const", "attr": {"dtype": {"type": "DT_FLOAT"}, "value": {"tensor": {"dtype": "DT_FLOAT", "tensorShape": {"dim": [{"size": "1"}, {"size": "1"}, {"size": "64"}, {"size": "24"}]}}}}}, {"name": "StatefulPartitionedCall/StatefulPartitionedCall/predict/MobilenetV3/expanded_conv_1/project/Conv2D_bn_offset", "op": "Const", "attr": {"dtype": {"type": "DT_FLOAT"}, "value": {"tensor": {"dtype": "DT_FLOAT", "tensorShape": {"dim": [{"size": "24"}]}}}}}, {"name": "StatefulPartitionedCall/StatefulPartitionedCall/predict/MobilenetV3/expanded_conv_2/expand/Conv2D_weights", "op": "Const", "attr": {"value": {"tensor": {"dtype": "DT_FLOAT", "tensorShape": {"dim": [{"size": "1"}, {"size": "1"}, {"size": "24"}, {"size": "72"}]}}}, "dtype": {"type": "DT_FLOAT"}}}, {"name": "StatefulPartitionedCall/StatefulPartitionedCall/predict/MobilenetV3/expanded_conv_2/expand/Conv2D_bn_offset", "op": "Const", "attr": {"value": {"tensor": {"dtype": "DT_FLOAT", "tensorShape": {"dim": [{"size": "72"}]}}}, "dtype": {"type": "DT_FLOAT"}}}, {"name": "StatefulPartitionedCall/StatefulPartitionedCall/predict/MobilenetV3/expanded_conv_2/depthwise/depthwise_weights", "op": "Const", "attr": {"value": {"tensor": {"dtype": "DT_FLOAT", "tensorShape": {"dim": [{"size": "3"}, {"size": "3"}, {"size": "72"}, {"size": "1"}]}}}, "dtype": {"type": "DT_FLOAT"}}}, {"name": "StatefulPartitionedCall/StatefulPartitionedCall/predict/MobilenetV3/expanded_conv_2/depthwise/depthwise_bn_offset", "op": "Const", "attr": {"value": {"tensor": {"dtype": "DT_FLOAT", "tensorShape": {"dim": [{"size": "72"}]}}}, "dtype": {"type": "DT_FLOAT"}}}, {"name": "StatefulPartitionedCall/StatefulPartitionedCall/predict/MobilenetV3/expanded_conv_2/project/Conv2D_weights", "op": "Const", "attr": {"dtype": {"type": "DT_FLOAT"}, "value": {"tensor": {"dtype": "DT_FLOAT", "tensorShape": {"dim": [{"size": "1"}, {"size": "1"}, {"size": "72"}, {"size": "24"}]}}}}}, {"name": "StatefulPartitionedCall/StatefulPartitionedCall/predict/MobilenetV3/expanded_conv_13/project/Conv2D_weights", "op": "Const", "attr": {"value": {"tensor": {"dtype": "DT_FLOAT", "tensorShape": {"dim": [{"size": "1"}, {"size": "1"}, {"size": "960"}, {"size": "160"}]}}}, "dtype": {"type": "DT_FLOAT"}}}, {"name": "StatefulPartitionedCall/StatefulPartitionedCall/predict/MobilenetV3/expanded_conv_2/project/Conv2D_bn_offset", "op": "Const", "attr": {"dtype": {"type": "DT_FLOAT"}, "value": {"tensor": {"dtype": "DT_FLOAT", "tensorShape": {"dim": [{"size": "24"}]}}}}}, {"name": "StatefulPartitionedCall/StatefulPartitionedCall/predict/MobilenetV3/expanded_conv_3/expand/Conv2D_weights", "op": "Const", "attr": {"value": {"tensor": {"dtype": "DT_FLOAT", "tensorShape": {"dim": [{"size": "1"}, {"size": "1"}, {"size": "24"}, {"size": "72"}]}}}, "dtype": {"type": "DT_FLOAT"}}}, {"name": "StatefulPartitionedCall/StatefulPartitionedCall/predict/MobilenetV3/expanded_conv_3/expand/Conv2D_bn_offset", "op": "Const", "attr": {"value": {"tensor": {"dtype": "DT_FLOAT", "tensorShape": {"dim": [{"size": "72"}]}}}, "dtype": {"type": "DT_FLOAT"}}}, {"name": "StatefulPartitionedCall/StatefulPartitionedCall/predict/MobilenetV3/expanded_conv_13/project/Conv2D_bn_offset", "op": "Const", "attr": {"dtype": {"type": "DT_FLOAT"}, "value": {"tensor": {"dtype": "DT_FLOAT", "tensorShape": {"dim": [{"size": "160"}]}}}}}, {"name": "StatefulPartitionedCall/StatefulPartitionedCall/predict/MobilenetV3/expanded_conv_3/depthwise/depthwise_weights", "op": "Const", "attr": {"dtype": {"type": "DT_FLOAT"}, "value": {"tensor": {"dtype": "DT_FLOAT", "tensorShape": {"dim": [{"size": "5"}, {"size": "5"}, {"size": "72"}, {"size": "1"}]}}}}}, {"name": "StatefulPartitionedCall/StatefulPartitionedCall/predict/MobilenetV3/expanded_conv_3/depthwise/depthwise_bn_offset", "op": "Const", "attr": {"value": {"tensor": {"dtype": "DT_FLOAT", "tensorShape": {"dim": [{"size": "72"}]}}}, "dtype": {"type": "DT_FLOAT"}}}, {"name": "StatefulPartitionedCall/StatefulPartitionedCall/predict/MobilenetV3/expanded_conv_14/expand/Conv2D_weights", "op": "Const", "attr": {"dtype": {"type": "DT_FLOAT"}, "value": {"tensor": {"dtype": "DT_FLOAT", "tensorShape": {"dim": [{"size": "1"}, {"size": "1"}, {"size": "160"}, {"size": "960"}]}}}}}, {"name": "StatefulPartitionedCall/StatefulPartitionedCall/predict/MobilenetV3/expanded_conv_3/project/Conv2D_weights", "op": "Const", "attr": {"value": {"tensor": {"dtype": "DT_FLOAT", "tensorShape": {"dim": [{"size": "1"}, {"size": "1"}, {"size": "72"}, {"size": "40"}]}}}, "dtype": {"type": "DT_FLOAT"}}}, {"name": "StatefulPartitionedCall/StatefulPartitionedCall/predict/MobilenetV3/expanded_conv_3/project/Conv2D_bn_offset", "op": "Const", "attr": {"dtype": {"type": "DT_FLOAT"}, "value": {"tensor": {"dtype": "DT_FLOAT", "tensorShape": {"dim": [{"size": "40"}]}}}}}, {"name": "StatefulPartitionedCall/StatefulPartitionedCall/predict/MobilenetV3/expanded_conv_4/expand/Conv2D_weights", "op": "Const", "attr": {"dtype": {"type": "DT_FLOAT"}, "value": {"tensor": {"dtype": "DT_FLOAT", "tensorShape": {"dim": [{"size": "1"}, {"size": "1"}, {"size": "40"}, {"size": "120"}]}}}}}, {"name": "StatefulPartitionedCall/StatefulPartitionedCall/predict/MobilenetV3/expanded_conv_14/expand/Conv2D_bn_offset", "op": "Const", "attr": {"value": {"tensor": {"dtype": "DT_FLOAT", "tensorShape": {"dim": [{"size": "960"}]}}}, "dtype": {"type": "DT_FLOAT"}}}, {"name": "StatefulPartitionedCall/StatefulPartitionedCall/predict/MobilenetV3/expanded_conv_4/expand/Conv2D_bn_offset", "op": "Const", "attr": {"value": {"tensor": {"dtype": "DT_FLOAT", "tensorShape": {"dim": [{"size": "120"}]}}}, "dtype": {"type": "DT_FLOAT"}}}, {"name": "StatefulPartitionedCall/StatefulPartitionedCall/predict/MobilenetV3/expanded_conv_4/depthwise/depthwise_weights", "op": "Const", "attr": {"dtype": {"type": "DT_FLOAT"}, "value": {"tensor": {"dtype": "DT_FLOAT", "tensorShape": {"dim": [{"size": "5"}, {"size": "5"}, {"size": "120"}, {"size": "1"}]}}}}}, {"name": "StatefulPartitionedCall/StatefulPartitionedCall/predict/MobilenetV3/expanded_conv_4/depthwise/depthwise_bn_offset", "op": "Const", "attr": {"value": {"tensor": {"dtype": "DT_FLOAT", "tensorShape": {"dim": [{"size": "120"}]}}}, "dtype": {"type": "DT_FLOAT"}}}, {"name": "StatefulPartitionedCall/StatefulPartitionedCall/predict/MobilenetV3/expanded_conv_4/project/Conv2D_weights", "op": "Const", "attr": {"value": {"tensor": {"dtype": "DT_FLOAT", "tensorShape": {"dim": [{"size": "1"}, {"size": "1"}, {"size": "120"}, {"size": "40"}]}}}, "dtype": {"type": "DT_FLOAT"}}}, {"name": "StatefulPartitionedCall/StatefulPartitionedCall/predict/MobilenetV3/expanded_conv_4/project/Conv2D_bn_offset", "op": "Const", "attr": {"value": {"tensor": {"dtype": "DT_FLOAT", "tensorShape": {"dim": [{"size": "40"}]}}}, "dtype": {"type": "DT_FLOAT"}}}, {"name": "StatefulPartitionedCall/StatefulPartitionedCall/predict/MobilenetV3/expanded_conv_5/expand/Conv2D_weights", "op": "Const", "attr": {"dtype": {"type": "DT_FLOAT"}, "value": {"tensor": {"dtype": "DT_FLOAT", "tensorShape": {"dim": [{"size": "1"}, {"size": "1"}, {"size": "40"}, {"size": "120"}]}}}}}, {"name": "StatefulPartitionedCall/StatefulPartitionedCall/predict/MobilenetV3/expanded_conv_14/depthwise/depthwise_weights", "op": "Const", "attr": {"value": {"tensor": {"dtype": "DT_FLOAT", "tensorShape": {"dim": [{"size": "5"}, {"size": "5"}, {"size": "960"}, {"size": "1"}]}}}, "dtype": {"type": "DT_FLOAT"}}}, {"name": "StatefulPartitionedCall/StatefulPartitionedCall/predict/MobilenetV3/expanded_conv_5/expand/Conv2D_bn_offset", "op": "Const", "attr": {"value": {"tensor": {"dtype": "DT_FLOAT", "tensorShape": {"dim": [{"size": "120"}]}}}, "dtype": {"type": "DT_FLOAT"}}}, {"name": "StatefulPartitionedCall/StatefulPartitionedCall/predict/MobilenetV3/expanded_conv_5/depthwise/depthwise_weights", "op": "Const", "attr": {"value": {"tensor": {"dtype": "DT_FLOAT", "tensorShape": {"dim": [{"size": "5"}, {"size": "5"}, {"size": "120"}, {"size": "1"}]}}}, "dtype": {"type": "DT_FLOAT"}}}, {"name": "StatefulPartitionedCall/StatefulPartitionedCall/predict/MobilenetV3/expanded_conv_5/depthwise/depthwise_bn_offset", "op": "Const", "attr": {"value": {"tensor": {"dtype": "DT_FLOAT", "tensorShape": {"dim": [{"size": "120"}]}}}, "dtype": {"type": "DT_FLOAT"}}}, {"name": "StatefulPartitionedCall/StatefulPartitionedCall/predict/MobilenetV3/expanded_conv_14/depthwise/depthwise_bn_offset", "op": "Const", "attr": {"value": {"tensor": {"dtype": "DT_FLOAT", "tensorShape": {"dim": [{"size": "960"}]}}}, "dtype": {"type": "DT_FLOAT"}}}, {"name": "StatefulPartitionedCall/StatefulPartitionedCall/predict/MobilenetV3/expanded_conv_5/project/Conv2D_weights", "op": "Const", "attr": {"value": {"tensor": {"dtype": "DT_FLOAT", "tensorShape": {"dim": [{"size": "1"}, {"size": "1"}, {"size": "120"}, {"size": "40"}]}}}, "dtype": {"type": "DT_FLOAT"}}}, {"name": "StatefulPartitionedCall/StatefulPartitionedCall/predict/MobilenetV3/expanded_conv_5/project/Conv2D_bn_offset", "op": "Const", "attr": {"dtype": {"type": "DT_FLOAT"}, "value": {"tensor": {"dtype": "DT_FLOAT", "tensorShape": {"dim": [{"size": "40"}]}}}}}, {"name": "StatefulPartitionedCall/StatefulPartitionedCall/predict/MobilenetV3/expanded_conv_6/expand/Conv2D_weights", "op": "Const", "attr": {"value": {"tensor": {"dtype": "DT_FLOAT", "tensorShape": {"dim": [{"size": "1"}, {"size": "1"}, {"size": "40"}, {"size": "240"}]}}}, "dtype": {"type": "DT_FLOAT"}}}, {"name": "StatefulPartitionedCall/StatefulPartitionedCall/predict/MobilenetV3/expanded_conv_6/expand/Conv2D_bn_offset", "op": "Const", "attr": {"dtype": {"type": "DT_FLOAT"}, "value": {"tensor": {"dtype": "DT_FLOAT", "tensorShape": {"dim": [{"size": "240"}]}}}}}, {"name": "StatefulPartitionedCall/StatefulPartitionedCall/predict/MobilenetV3/expanded_conv_6/depthwise/depthwise_weights", "op": "Const", "attr": {"value": {"tensor": {"dtype": "DT_FLOAT", "tensorShape": {"dim": [{"size": "3"}, {"size": "3"}, {"size": "240"}, {"size": "1"}]}}}, "dtype": {"type": "DT_FLOAT"}}}, {"name": "StatefulPartitionedCall/StatefulPartitionedCall/predict/MobilenetV3/expanded_conv_6/depthwise/depthwise_bn_offset", "op": "Const", "attr": {"dtype": {"type": "DT_FLOAT"}, "value": {"tensor": {"dtype": "DT_FLOAT", "tensorShape": {"dim": [{"size": "240"}]}}}}}, {"name": "StatefulPartitionedCall/StatefulPartitionedCall/predict/MobilenetV3/expanded_conv_6/project/Conv2D_weights", "op": "Const", "attr": {"dtype": {"type": "DT_FLOAT"}, "value": {"tensor": {"dtype": "DT_FLOAT", "tensorShape": {"dim": [{"size": "1"}, {"size": "1"}, {"size": "240"}, {"size": "80"}]}}}}}, {"name": "StatefulPartitionedCall/StatefulPartitionedCall/predict/MobilenetV3/expanded_conv_6/project/Conv2D_bn_offset", "op": "Const", "attr": {"dtype": {"type": "DT_FLOAT"}, "value": {"tensor": {"dtype": "DT_FLOAT", "tensorShape": {"dim": [{"size": "80"}]}}}}}, {"name": "StatefulPartitionedCall/StatefulPartitionedCall/predict/MobilenetV3/expanded_conv_7/expand/Conv2D_weights", "op": "Const", "attr": {"dtype": {"type": "DT_FLOAT"}, "value": {"tensor": {"dtype": "DT_FLOAT", "tensorShape": {"dim": [{"size": "1"}, {"size": "1"}, {"size": "80"}, {"size": "200"}]}}}}}, {"name": "StatefulPartitionedCall/StatefulPartitionedCall/predict/MobilenetV3/expanded_conv_7/expand/Conv2D_bn_offset", "op": "Const", "attr": {"dtype": {"type": "DT_FLOAT"}, "value": {"tensor": {"dtype": "DT_FLOAT", "tensorShape": {"dim": [{"size": "200"}]}}}}}, {"name": "StatefulPartitionedCall/StatefulPartitionedCall/predict/MobilenetV3/expanded_conv_7/depthwise/depthwise_weights", "op": "Const", "attr": {"dtype": {"type": "DT_FLOAT"}, "value": {"tensor": {"dtype": "DT_FLOAT", "tensorShape": {"dim": [{"size": "3"}, {"size": "3"}, {"size": "200"}, {"size": "1"}]}}}}}, {"name": "StatefulPartitionedCall/StatefulPartitionedCall/predict/MobilenetV3/expanded_conv_7/depthwise/depthwise_bn_offset", "op": "Const", "attr": {"value": {"tensor": {"dtype": "DT_FLOAT", "tensorShape": {"dim": [{"size": "200"}]}}}, "dtype": {"type": "DT_FLOAT"}}}, {"name": "StatefulPartitionedCall/StatefulPartitionedCall/predict/MobilenetV3/expanded_conv_7/project/Conv2D_weights", "op": "Const", "attr": {"value": {"tensor": {"dtype": "DT_FLOAT", "tensorShape": {"dim": [{"size": "1"}, {"size": "1"}, {"size": "200"}, {"size": "80"}]}}}, "dtype": {"type": "DT_FLOAT"}}}, {"name": "StatefulPartitionedCall/StatefulPartitionedCall/predict/MobilenetV3/expanded_conv_7/project/Conv2D_bn_offset", "op": "Const", "attr": {"value": {"tensor": {"dtype": "DT_FLOAT", "tensorShape": {"dim": [{"size": "80"}]}}}, "dtype": {"type": "DT_FLOAT"}}}, {"name": "StatefulPartitionedCall/StatefulPartitionedCall/predict/MobilenetV3/expanded_conv_8/expand/Conv2D_weights", "op": "Const", "attr": {"value": {"tensor": {"dtype": "DT_FLOAT", "tensorShape": {"dim": [{"size": "1"}, {"size": "1"}, {"size": "80"}, {"size": "184"}]}}}, "dtype": {"type": "DT_FLOAT"}}}, {"name": "StatefulPartitionedCall/StatefulPartitionedCall/predict/MobilenetV3/expanded_conv_8/expand/Conv2D_bn_offset", "op": "Const", "attr": {"dtype": {"type": "DT_FLOAT"}, "value": {"tensor": {"dtype": "DT_FLOAT", "tensorShape": {"dim": [{"size": "184"}]}}}}}, {"name": "StatefulPartitionedCall/StatefulPartitionedCall/predict/MobilenetV3/expanded_conv_8/depthwise/depthwise_weights", "op": "Const", "attr": {"dtype": {"type": "DT_FLOAT"}, "value": {"tensor": {"dtype": "DT_FLOAT", "tensorShape": {"dim": [{"size": "3"}, {"size": "3"}, {"size": "184"}, {"size": "1"}]}}}}}, {"name": "StatefulPartitionedCall/StatefulPartitionedCall/predict/MobilenetV3/expanded_conv_8/depthwise/depthwise_bn_offset", "op": "Const", "attr": {"dtype": {"type": "DT_FLOAT"}, "value": {"tensor": {"dtype": "DT_FLOAT", "tensorShape": {"dim": [{"size": "184"}]}}}}}, {"name": "StatefulPartitionedCall/StatefulPartitionedCall/predict/MobilenetV3/expanded_conv_8/project/Conv2D_weights", "op": "Const", "attr": {"value": {"tensor": {"dtype": "DT_FLOAT", "tensorShape": {"dim": [{"size": "1"}, {"size": "1"}, {"size": "184"}, {"size": "80"}]}}}, "dtype": {"type": "DT_FLOAT"}}}, {"name": "StatefulPartitionedCall/StatefulPartitionedCall/predict/MobilenetV3/expanded_conv_8/project/Conv2D_bn_offset", "op": "Const", "attr": {"value": {"tensor": {"dtype": "DT_FLOAT", "tensorShape": {"dim": [{"size": "80"}]}}}, "dtype": {"type": "DT_FLOAT"}}}, {"name": "StatefulPartitionedCall/StatefulPartitionedCall/predict/MobilenetV3/expanded_conv_9/expand/Conv2D_weights", "op": "Const", "attr": {"value": {"tensor": {"dtype": "DT_FLOAT", "tensorShape": {"dim": [{"size": "1"}, {"size": "1"}, {"size": "80"}, {"size": "184"}]}}}, "dtype": {"type": "DT_FLOAT"}}}, {"name": "StatefulPartitionedCall/StatefulPartitionedCall/predict/MobilenetV3/expanded_conv_9/expand/Conv2D_bn_offset", "op": "Const", "attr": {"dtype": {"type": "DT_FLOAT"}, "value": {"tensor": {"dtype": "DT_FLOAT", "tensorShape": {"dim": [{"size": "184"}]}}}}}, {"name": "StatefulPartitionedCall/StatefulPartitionedCall/predict/MobilenetV3/expanded_conv_9/depthwise/depthwise_weights", "op": "Const", "attr": {"dtype": {"type": "DT_FLOAT"}, "value": {"tensor": {"dtype": "DT_FLOAT", "tensorShape": {"dim": [{"size": "3"}, {"size": "3"}, {"size": "184"}, {"size": "1"}]}}}}}, {"name": "StatefulPartitionedCall/StatefulPartitionedCall/predict/MobilenetV3/expanded_conv_9/depthwise/depthwise_bn_offset", "op": "Const", "attr": {"dtype": {"type": "DT_FLOAT"}, "value": {"tensor": {"dtype": "DT_FLOAT", "tensorShape": {"dim": [{"size": "184"}]}}}}}, {"name": "StatefulPartitionedCall/StatefulPartitionedCall/predict/MobilenetV3/expanded_conv_9/project/Conv2D_weights", "op": "Const", "attr": {"value": {"tensor": {"dtype": "DT_FLOAT", "tensorShape": {"dim": [{"size": "1"}, {"size": "1"}, {"size": "184"}, {"size": "80"}]}}}, "dtype": {"type": "DT_FLOAT"}}}, {"name": "StatefulPartitionedCall/StatefulPartitionedCall/predict/MobilenetV3/expanded_conv_9/project/Conv2D_bn_offset", "op": "Const", "attr": {"value": {"tensor": {"dtype": "DT_FLOAT", "tensorShape": {"dim": [{"size": "80"}]}}}, "dtype": {"type": "DT_FLOAT"}}}, {"name": "StatefulPartitionedCall/StatefulPartitionedCall/predict/MobilenetV3/expanded_conv_10/expand/Conv2D_weights", "op": "Const", "attr": {"dtype": {"type": "DT_FLOAT"}, "value": {"tensor": {"dtype": "DT_FLOAT", "tensorShape": {"dim": [{"size": "1"}, {"size": "1"}, {"size": "80"}, {"size": "480"}]}}}}}, {"name": "StatefulPartitionedCall/StatefulPartitionedCall/predict/MobilenetV3/expanded_conv_10/expand/Conv2D_bn_offset", "op": "Const", "attr": {"dtype": {"type": "DT_FLOAT"}, "value": {"tensor": {"dtype": "DT_FLOAT", "tensorShape": {"dim": [{"size": "480"}]}}}}}, {"name": "StatefulPartitionedCall/StatefulPartitionedCall/predict/MobilenetV3/expanded_conv_10/depthwise/depthwise_weights", "op": "Const", "attr": {"value": {"tensor": {"dtype": "DT_FLOAT", "tensorShape": {"dim": [{"size": "3"}, {"size": "3"}, {"size": "480"}, {"size": "1"}]}}}, "dtype": {"type": "DT_FLOAT"}}}, {"name": "StatefulPartitionedCall/StatefulPartitionedCall/predict/MobilenetV3/expanded_conv_10/depthwise/depthwise_bn_offset", "op": "Const", "attr": {"dtype": {"type": "DT_FLOAT"}, "value": {"tensor": {"dtype": "DT_FLOAT", "tensorShape": {"dim": [{"size": "480"}]}}}}}, {"name": "StatefulPartitionedCall/StatefulPartitionedCall/predict/MobilenetV3/expanded_conv_10/project/Conv2D_weights", "op": "Const", "attr": {"dtype": {"type": "DT_FLOAT"}, "value": {"tensor": {"dtype": "DT_FLOAT", "tensorShape": {"dim": [{"size": "1"}, {"size": "1"}, {"size": "480"}, {"size": "112"}]}}}}}, {"name": "StatefulPartitionedCall/StatefulPartitionedCall/predict/MobilenetV3/expanded_conv_14/project/Conv2D_weights", "op": "Const", "attr": {"dtype": {"type": "DT_FLOAT"}, "value": {"tensor": {"dtype": "DT_FLOAT", "tensorShape": {"dim": [{"size": "1"}, {"size": "1"}, {"size": "960"}, {"size": "160"}]}}}}}, {"name": "StatefulPartitionedCall/StatefulPartitionedCall/predict/MobilenetV3/expanded_conv_10/project/Conv2D_bn_offset", "op": "Const", "attr": {"value": {"tensor": {"dtype": "DT_FLOAT", "tensorShape": {"dim": [{"size": "112"}]}}}, "dtype": {"type": "DT_FLOAT"}}}, {"name": "StatefulPartitionedCall/StatefulPartitionedCall/predict/MobilenetV3/expanded_conv_11/expand/Conv2D_weights", "op": "Const", "attr": {"value": {"tensor": {"dtype": "DT_FLOAT", "tensorShape": {"dim": [{"size": "1"}, {"size": "1"}, {"size": "112"}, {"size": "672"}]}}}, "dtype": {"type": "DT_FLOAT"}}}, {"name": "StatefulPartitionedCall/StatefulPartitionedCall/predict/MobilenetV3/expanded_conv_11/expand/Conv2D_bn_offset", "op": "Const", "attr": {"dtype": {"type": "DT_FLOAT"}, "value": {"tensor": {"dtype": "DT_FLOAT", "tensorShape": {"dim": [{"size": "672"}]}}}}}, {"name": "StatefulPartitionedCall/StatefulPartitionedCall/predict/MobilenetV3/expanded_conv_11/depthwise/depthwise_weights", "op": "Const", "attr": {"value": {"tensor": {"dtype": "DT_FLOAT", "tensorShape": {"dim": [{"size": "3"}, {"size": "3"}, {"size": "672"}, {"size": "1"}]}}}, "dtype": {"type": "DT_FLOAT"}}}, {"name": "StatefulPartitionedCall/StatefulPartitionedCall/predict/MobilenetV3/expanded_conv_11/depthwise/depthwise_bn_offset", "op": "Const", "attr": {"dtype": {"type": "DT_FLOAT"}, "value": {"tensor": {"dtype": "DT_FLOAT", "tensorShape": {"dim": [{"size": "672"}]}}}}}, {"name": "StatefulPartitionedCall/StatefulPartitionedCall/predict/MobilenetV3/expanded_conv_14/project/Conv2D_bn_offset", "op": "Const", "attr": {"value": {"tensor": {"dtype": "DT_FLOAT", "tensorShape": {"dim": [{"size": "160"}]}}}, "dtype": {"type": "DT_FLOAT"}}}, {"name": "StatefulPartitionedCall/StatefulPartitionedCall/predict/MobilenetV3/expanded_conv_11/project/Conv2D_weights", "op": "Const", "attr": {"dtype": {"type": "DT_FLOAT"}, "value": {"tensor": {"dtype": "DT_FLOAT", "tensorShape": {"dim": [{"size": "1"}, {"size": "1"}, {"size": "672"}, {"size": "112"}]}}}}}, {"name": "StatefulPartitionedCall/StatefulPartitionedCall/predict/MobilenetV3/Conv_1/Conv2D_weights", "op": "Const", "attr": {"dtype": {"type": "DT_FLOAT"}, "value": {"tensor": {"dtype": "DT_FLOAT", "tensorShape": {"dim": [{"size": "1"}, {"size": "1"}, {"size": "160"}, {"size": "960"}]}}}}}, {"name": "StatefulPartitionedCall/StatefulPartitionedCall/predict/MobilenetV3/expanded_conv_11/project/Conv2D_bn_offset", "op": "Const", "attr": {"dtype": {"type": "DT_FLOAT"}, "value": {"tensor": {"dtype": "DT_FLOAT", "tensorShape": {"dim": [{"size": "112"}]}}}}}, {"name": "StatefulPartitionedCall/StatefulPartitionedCall/predict/MobilenetV3/expanded_conv_12/expand/Conv2D_weights", "op": "Const", "attr": {"value": {"tensor": {"dtype": "DT_FLOAT", "tensorShape": {"dim": [{"size": "1"}, {"size": "1"}, {"size": "112"}, {"size": "672"}]}}}, "dtype": {"type": "DT_FLOAT"}}}, {"name": "StatefulPartitionedCall/StatefulPartitionedCall/predict/MobilenetV3/expanded_conv_12/expand/Conv2D_bn_offset", "op": "Const", "attr": {"value": {"tensor": {"dtype": "DT_FLOAT", "tensorShape": {"dim": [{"size": "672"}]}}}, "dtype": {"type": "DT_FLOAT"}}}, {"name": "StatefulPartitionedCall/StatefulPartitionedCall/predict/MobilenetV3/expanded_conv_12/depthwise/depthwise_weights", "op": "Const", "attr": {"dtype": {"type": "DT_FLOAT"}, "value": {"tensor": {"dtype": "DT_FLOAT", "tensorShape": {"dim": [{"size": "5"}, {"size": "5"}, {"size": "672"}, {"size": "1"}]}}}}}, {"name": "StatefulPartitionedCall/StatefulPartitionedCall/predict/MobilenetV3/expanded_conv_12/depthwise/depthwise_bn_offset", "op": "Const", "attr": {"dtype": {"type": "DT_FLOAT"}, "value": {"tensor": {"dtype": "DT_FLOAT", "tensorShape": {"dim": [{"size": "672"}]}}}}}, {"name": "StatefulPartitionedCall/StatefulPartitionedCall/predict/MobilenetV3/Conv_1/Conv2D_bn_offset", "op": "Const", "attr": {"dtype": {"type": "DT_FLOAT"}, "value": {"tensor": {"dtype": "DT_FLOAT", "tensorShape": {"dim": [{"size": "960"}]}}}}}, {"name": "StatefulPartitionedCall/StatefulPartitionedCall/predict/MobilenetV3/expanded_conv_12/project/Conv2D_weights", "op": "Const", "attr": {"value": {"tensor": {"dtype": "DT_FLOAT", "tensorShape": {"dim": [{"size": "1"}, {"size": "1"}, {"size": "672"}, {"size": "160"}]}}}, "dtype": {"type": "DT_FLOAT"}}}, {"name": "StatefulPartitionedCall/StatefulPartitionedCall/predict/MobilenetV3/expanded_conv_12/project/Conv2D_bn_offset", "op": "Const", "attr": {"value": {"tensor": {"dtype": "DT_FLOAT", "tensorShape": {"dim": [{"size": "160"}]}}}, "dtype": {"type": "DT_FLOAT"}}}, {"name": "StatefulPartitionedCall/StatefulPartitionedCall/predict/MobilenetV3/expanded_conv_13/expand/Conv2D_weights", "op": "Const", "attr": {"dtype": {"type": "DT_FLOAT"}, "value": {"tensor": {"dtype": "DT_FLOAT", "tensorShape": {"dim": [{"size": "1"}, {"size": "1"}, {"size": "160"}, {"size": "960"}]}}}}}, {"name": "StatefulPartitionedCall/StatefulPartitionedCall/predict/MobilenetV3/expanded_conv_13/expand/Conv2D_bn_offset", "op": "Const", "attr": {"dtype": {"type": "DT_FLOAT"}, "value": {"tensor": {"dtype": "DT_FLOAT", "tensorShape": {"dim": [{"size": "960"}]}}}}}, {"name": "StatefulPartitionedCall/StatefulPartitionedCall/predict/MobilenetV3/expanded_conv_13/depthwise/depthwise_weights", "op": "Const", "attr": {"value": {"tensor": {"dtype": "DT_FLOAT", "tensorShape": {"dim": [{"size": "5"}, {"size": "5"}, {"size": "960"}, {"size": "1"}]}}}, "dtype": {"type": "DT_FLOAT"}}}, {"name": "StatefulPartitionedCall/StatefulPartitionedCall/predict/MobilenetV3/expanded_conv_13/depthwise/depthwise_bn_offset", "op": "Const", "attr": {"value": {"tensor": {"dtype": "DT_FLOAT", "tensorShape": {"dim": [{"size": "960"}]}}}, "dtype": {"type": "DT_FLOAT"}}}, {"name": "StatefulPartitionedCall/StatefulPartitionedCall/predict/MobilenetV3/Conv_2/hard_swish/mul_1/y", "op": "Const", "input": ["^inputs"], "attr": {"value": {"tensor": {"dtype": "DT_FLOAT", "tensorShape": {}}}, "dtype": {"type": "DT_FLOAT"}}}, {"name": "StatefulPartitionedCall/StatefulPartitionedCall/predict/MobilenetV3/Conv_1/hard_swish/mul_1/y", "op": "Const", "input": ["^inputs"], "attr": {"dtype": {"type": "DT_FLOAT"}, "value": {"tensor": {"dtype": "DT_FLOAT", "tensorShape": {}}}}}, {"name": "StatefulPartitionedCall/StatefulPartitionedCall/predict/MobilenetV3/expanded_conv_14/squeeze_excite/Conv_1/mul/y", "op": "Const", "input": ["^inputs"], "attr": {"value": {"tensor": {"dtype": "DT_FLOAT", "tensorShape": {}}}, "dtype": {"type": "DT_FLOAT"}}}, {"name": "StatefulPartitionedCall/StatefulPartitionedCall/predict/MobilenetV3/expanded_conv_14/squeeze_excite/Mean/reduction_indices", "op": "Const", "input": ["^inputs"], "attr": {"value": {"tensor": {"dtype": "DT_INT32", "tensorShape": {"dim": [{"size": "2"}]}}}, "dtype": {"type": "DT_INT32"}}}, {"name": "Func/StatefulPartitionedCall/StatefulPartitionedCall/input/_518", "op": "Const", "input": ["^inputs"], "attr": {"value": {"tensor": {"dtype": "DT_FLOAT", "tensorShape": {"dim": [{"size": "1"}, {"size": "1"}, {"size": "960"}, {"size": "240"}]}}}, "dtype": {"type": "DT_FLOAT"}}}, {"name": "Func/StatefulPartitionedCall/StatefulPartitionedCall/input/_519", "op": "Const", "input": ["^inputs"], "attr": {"value": {"tensor": {"dtype": "DT_FLOAT", "tensorShape": {"dim": [{"size": "240"}]}}}, "dtype": {"type": "DT_FLOAT"}}}, {"name": "Func/StatefulPartitionedCall/StatefulPartitionedCall/input/_520", "op": "Const", "input": ["^inputs"], "attr": {"dtype": {"type": "DT_FLOAT"}, "value": {"tensor": {"dtype": "DT_FLOAT", "tensorShape": {"dim": [{"size": "1"}, {"size": "1"}, {"size": "240"}, {"size": "960"}]}}}}}, {"name": "Func/StatefulPartitionedCall/StatefulPartitionedCall/input/_521", "op": "Const", "input": ["^inputs"], "attr": {"dtype": {"type": "DT_FLOAT"}, "value": {"tensor": {"dtype": "DT_FLOAT", "tensorShape": {"dim": [{"size": "960"}]}}}}}, {"name": "StatefulPartitionedCall/StatefulPartitionedCall/predict/MobilenetV3/expanded_conv_14/squeeze_excite/Conv_1/add/y", "op": "Const", "input": ["^inputs"], "attr": {"dtype": {"type": "DT_FLOAT"}, "value": {"tensor": {"dtype": "DT_FLOAT", "tensorShape": {}}}}}, {"name": "StatefulPartitionedCall/StatefulPartitionedCall/predict/MobilenetV3/expanded_conv_14/depthwise/hard_swish/mul_1/y", "op": "Const", "input": ["^inputs"], "attr": {"dtype": {"type": "DT_FLOAT"}, "value": {"tensor": {"dtype": "DT_FLOAT", "tensorShape": {}}}}}, {"name": "StatefulPartitionedCall/StatefulPartitionedCall/predict/MobilenetV3/expanded_conv_14/expand/hard_swish/mul_1/y", "op": "Const", "input": ["^inputs"], "attr": {"value": {"tensor": {"dtype": "DT_FLOAT", "tensorShape": {}}}, "dtype": {"type": "DT_FLOAT"}}}, {"name": "StatefulPartitionedCall/StatefulPartitionedCall/predict/MobilenetV3/expanded_conv_14/expand/hard_swish/add/y", "op": "Const", "input": ["^inputs"], "attr": {"dtype": {"type": "DT_FLOAT"}, "value": {"tensor": {"dtype": "DT_FLOAT", "tensorShape": {}}}}}, {"name": "StatefulPartitionedCall/StatefulPartitionedCall/predict/MobilenetV3/expanded_conv_14/depthwise/hard_swish/add/y", "op": "Const", "input": ["^inputs"], "attr": {"value": {"tensor": {"dtype": "DT_FLOAT", "tensorShape": {}}}, "dtype": {"type": "DT_FLOAT"}}}, {"name": "StatefulPartitionedCall/StatefulPartitionedCall/predict/MobilenetV3/expanded_conv_13/squeeze_excite/Conv_1/mul/y", "op": "Const", "input": ["^inputs"], "attr": {"value": {"tensor": {"dtype": "DT_FLOAT", "tensorShape": {}}}, "dtype": {"type": "DT_FLOAT"}}}, {"name": "StatefulPartitionedCall/StatefulPartitionedCall/predict/MobilenetV3/expanded_conv_13/squeeze_excite/Mean/reduction_indices", "op": "Const", "input": ["^inputs"], "attr": {"dtype": {"type": "DT_INT32"}, "value": {"tensor": {"dtype": "DT_INT32", "tensorShape": {"dim": [{"size": "2"}]}}}}}, {"name": "Func/StatefulPartitionedCall/StatefulPartitionedCall/input/_499", "op": "Const", "input": ["^inputs"], "attr": {"value": {"tensor": {"dtype": "DT_FLOAT", "tensorShape": {"dim": [{"size": "1"}, {"size": "1"}, {"size": "960"}, {"size": "240"}]}}}, "dtype": {"type": "DT_FLOAT"}}}, {"name": "Func/StatefulPartitionedCall/StatefulPartitionedCall/input/_500", "op": "Const", "input": ["^inputs"], "attr": {"value": {"tensor": {"dtype": "DT_FLOAT", "tensorShape": {"dim": [{"size": "240"}]}}}, "dtype": {"type": "DT_FLOAT"}}}, {"name": "Func/StatefulPartitionedCall/StatefulPartitionedCall/input/_501", "op": "Const", "input": ["^inputs"], "attr": {"dtype": {"type": "DT_FLOAT"}, "value": {"tensor": {"dtype": "DT_FLOAT", "tensorShape": {"dim": [{"size": "1"}, {"size": "1"}, {"size": "240"}, {"size": "960"}]}}}}}, {"name": "Func/StatefulPartitionedCall/StatefulPartitionedCall/input/_502", "op": "Const", "input": ["^inputs"], "attr": {"dtype": {"type": "DT_FLOAT"}, "value": {"tensor": {"dtype": "DT_FLOAT", "tensorShape": {"dim": [{"size": "960"}]}}}}}, {"name": "StatefulPartitionedCall/StatefulPartitionedCall/predict/MobilenetV3/expanded_conv_13/squeeze_excite/Conv_1/add/y", "op": "Const", "input": ["^inputs"], "attr": {"dtype": {"type": "DT_FLOAT"}, "value": {"tensor": {"dtype": "DT_FLOAT", "tensorShape": {}}}}}, {"name": "StatefulPartitionedCall/StatefulPartitionedCall/predict/MobilenetV3/expanded_conv_13/depthwise/hard_swish/mul_1/y", "op": "Const", "input": ["^inputs"], "attr": {"dtype": {"type": "DT_FLOAT"}, "value": {"tensor": {"dtype": "DT_FLOAT", "tensorShape": {}}}}}, {"name": "StatefulPartitionedCall/StatefulPartitionedCall/predict/MobilenetV3/expanded_conv_13/expand/hard_swish/mul_1/y", "op": "Const", "input": ["^inputs"], "attr": {"value": {"tensor": {"dtype": "DT_FLOAT", "tensorShape": {}}}, "dtype": {"type": "DT_FLOAT"}}}, {"name": "StatefulPartitionedCall/StatefulPartitionedCall/predict/MobilenetV3/expanded_conv_13/expand/hard_swish/add/y", "op": "Const", "input": ["^inputs"], "attr": {"dtype": {"type": "DT_FLOAT"}, "value": {"tensor": {"dtype": "DT_FLOAT", "tensorShape": {}}}}}, {"name": "StatefulPartitionedCall/StatefulPartitionedCall/predict/MobilenetV3/expanded_conv_13/depthwise/hard_swish/add/y", "op": "Const", "input": ["^inputs"], "attr": {"value": {"tensor": {"dtype": "DT_FLOAT", "tensorShape": {}}}, "dtype": {"type": "DT_FLOAT"}}}, {"name": "StatefulPartitionedCall/StatefulPartitionedCall/predict/MobilenetV3/expanded_conv_12/squeeze_excite/Conv_1/mul/y", "op": "Const", "input": ["^inputs"], "attr": {"value": {"tensor": {"dtype": "DT_FLOAT", "tensorShape": {}}}, "dtype": {"type": "DT_FLOAT"}}}, {"name": "StatefulPartitionedCall/StatefulPartitionedCall/predict/MobilenetV3/expanded_conv_12/squeeze_excite/Mean/reduction_indices", "op": "Const", "input": ["^inputs"], "attr": {"dtype": {"type": "DT_INT32"}, "value": {"tensor": {"dtype": "DT_INT32", "tensorShape": {"dim": [{"size": "2"}]}}}}}, {"name": "Func/StatefulPartitionedCall/StatefulPartitionedCall/input/_480", "op": "Const", "input": ["^inputs"], "attr": {"value": {"tensor": {"dtype": "DT_FLOAT", "tensorShape": {"dim": [{"size": "1"}, {"size": "1"}, {"size": "672"}, {"size": "168"}]}}}, "dtype": {"type": "DT_FLOAT"}}}, {"name": "Func/StatefulPartitionedCall/StatefulPartitionedCall/input/_481", "op": "Const", "input": ["^inputs"], "attr": {"value": {"tensor": {"dtype": "DT_FLOAT", "tensorShape": {"dim": [{"size": "168"}]}}}, "dtype": {"type": "DT_FLOAT"}}}, {"name": "Func/StatefulPartitionedCall/StatefulPartitionedCall/input/_482", "op": "Const", "input": ["^inputs"], "attr": {"value": {"tensor": {"dtype": "DT_FLOAT", "tensorShape": {"dim": [{"size": "1"}, {"size": "1"}, {"size": "168"}, {"size": "672"}]}}}, "dtype": {"type": "DT_FLOAT"}}}, {"name": "Func/StatefulPartitionedCall/StatefulPartitionedCall/input/_483", "op": "Const", "input": ["^inputs"], "attr": {"value": {"tensor": {"dtype": "DT_FLOAT", "tensorShape": {"dim": [{"size": "672"}]}}}, "dtype": {"type": "DT_FLOAT"}}}, {"name": "StatefulPartitionedCall/StatefulPartitionedCall/predict/MobilenetV3/expanded_conv_12/squeeze_excite/Conv_1/add/y", "op": "Const", "input": ["^inputs"], "attr": {"value": {"tensor": {"dtype": "DT_FLOAT", "tensorShape": {}}}, "dtype": {"type": "DT_FLOAT"}}}, {"name": "StatefulPartitionedCall/StatefulPartitionedCall/predict/MobilenetV3/expanded_conv_12/depthwise/hard_swish/mul_1/y", "op": "Const", "input": ["^inputs"], "attr": {"value": {"tensor": {"dtype": "DT_FLOAT", "tensorShape": {}}}, "dtype": {"type": "DT_FLOAT"}}}, {"name": "StatefulPartitionedCall/StatefulPartitionedCall/predict/MobilenetV3/expanded_conv_12/expand/hard_swish/mul_1/y", "op": "Const", "input": ["^inputs"], "attr": {"dtype": {"type": "DT_FLOAT"}, "value": {"tensor": {"dtype": "DT_FLOAT", "tensorShape": {}}}}}, {"name": "StatefulPartitionedCall/StatefulPartitionedCall/predict/MobilenetV3/expanded_conv_11/squeeze_excite/Conv_1/mul/y", "op": "Const", "input": ["^inputs"], "attr": {"value": {"tensor": {"dtype": "DT_FLOAT", "tensorShape": {}}}, "dtype": {"type": "DT_FLOAT"}}}, {"name": "StatefulPartitionedCall/StatefulPartitionedCall/predict/MobilenetV3/expanded_conv_11/squeeze_excite/Mean/reduction_indices", "op": "Const", "input": ["^inputs"], "attr": {"dtype": {"type": "DT_INT32"}, "value": {"tensor": {"dtype": "DT_INT32", "tensorShape": {"dim": [{"size": "2"}]}}}}}, {"name": "Func/StatefulPartitionedCall/StatefulPartitionedCall/input/_461", "op": "Const", "input": ["^inputs"], "attr": {"value": {"tensor": {"dtype": "DT_FLOAT", "tensorShape": {"dim": [{"size": "1"}, {"size": "1"}, {"size": "672"}, {"size": "168"}]}}}, "dtype": {"type": "DT_FLOAT"}}}, {"name": "Func/StatefulPartitionedCall/StatefulPartitionedCall/input/_462", "op": "Const", "input": ["^inputs"], "attr": {"dtype": {"type": "DT_FLOAT"}, "value": {"tensor": {"dtype": "DT_FLOAT", "tensorShape": {"dim": [{"size": "168"}]}}}}}, {"name": "Func/StatefulPartitionedCall/StatefulPartitionedCall/input/_463", "op": "Const", "input": ["^inputs"], "attr": {"value": {"tensor": {"dtype": "DT_FLOAT", "tensorShape": {"dim": [{"size": "1"}, {"size": "1"}, {"size": "168"}, {"size": "672"}]}}}, "dtype": {"type": "DT_FLOAT"}}}, {"name": "Func/StatefulPartitionedCall/StatefulPartitionedCall/input/_464", "op": "Const", "input": ["^inputs"], "attr": {"value": {"tensor": {"dtype": "DT_FLOAT", "tensorShape": {"dim": [{"size": "672"}]}}}, "dtype": {"type": "DT_FLOAT"}}}, {"name": "StatefulPartitionedCall/StatefulPartitionedCall/predict/MobilenetV3/expanded_conv_11/squeeze_excite/Conv_1/add/y", "op": "Const", "input": ["^inputs"], "attr": {"value": {"tensor": {"dtype": "DT_FLOAT", "tensorShape": {}}}, "dtype": {"type": "DT_FLOAT"}}}, {"name": "StatefulPartitionedCall/StatefulPartitionedCall/predict/MobilenetV3/expanded_conv_11/depthwise/hard_swish/mul_1/y", "op": "Const", "input": ["^inputs"], "attr": {"dtype": {"type": "DT_FLOAT"}, "value": {"tensor": {"dtype": "DT_FLOAT", "tensorShape": {}}}}}, {"name": "StatefulPartitionedCall/StatefulPartitionedCall/predict/MobilenetV3/expanded_conv_11/expand/hard_swish/mul_1/y", "op": "Const", "input": ["^inputs"], "attr": {"value": {"tensor": {"dtype": "DT_FLOAT", "tensorShape": {}}}, "dtype": {"type": "DT_FLOAT"}}}, {"name": "StatefulPartitionedCall/StatefulPartitionedCall/predict/MobilenetV3/expanded_conv_11/expand/hard_swish/add/y", "op": "Const", "input": ["^inputs"], "attr": {"dtype": {"type": "DT_FLOAT"}, "value": {"tensor": {"dtype": "DT_FLOAT", "tensorShape": {}}}}}, {"name": "StatefulPartitionedCall/StatefulPartitionedCall/predict/MobilenetV3/expanded_conv_11/depthwise/hard_swish/add/y", "op": "Const", "input": ["^inputs"], "attr": {"dtype": {"type": "DT_FLOAT"}, "value": {"tensor": {"dtype": "DT_FLOAT", "tensorShape": {}}}}}, {"name": "StatefulPartitionedCall/StatefulPartitionedCall/predict/MobilenetV3/expanded_conv_10/squeeze_excite/Conv_1/mul/y", "op": "Const", "input": ["^inputs"], "attr": {"dtype": {"type": "DT_FLOAT"}, "value": {"tensor": {"dtype": "DT_FLOAT", "tensorShape": {}}}}}, {"name": "StatefulPartitionedCall/StatefulPartitionedCall/predict/MobilenetV3/expanded_conv_10/squeeze_excite/Mean/reduction_indices", "op": "Const", "input": ["^inputs"], "attr": {"value": {"tensor": {"dtype": "DT_INT32", "tensorShape": {"dim": [{"size": "2"}]}}}, "dtype": {"type": "DT_INT32"}}}, {"name": "Func/StatefulPartitionedCall/StatefulPartitionedCall/input/_442", "op": "Const", "input": ["^inputs"], "attr": {"value": {"tensor": {"dtype": "DT_FLOAT", "tensorShape": {"dim": [{"size": "1"}, {"size": "1"}, {"size": "480"}, {"size": "120"}]}}}, "dtype": {"type": "DT_FLOAT"}}}, {"name": "Func/StatefulPartitionedCall/StatefulPartitionedCall/input/_443", "op": "Const", "input": ["^inputs"], "attr": {"dtype": {"type": "DT_FLOAT"}, "value": {"tensor": {"dtype": "DT_FLOAT", "tensorShape": {"dim": [{"size": "120"}]}}}}}, {"name": "Func/StatefulPartitionedCall/StatefulPartitionedCall/input/_444", "op": "Const", "input": ["^inputs"], "attr": {"dtype": {"type": "DT_FLOAT"}, "value": {"tensor": {"dtype": "DT_FLOAT", "tensorShape": {"dim": [{"size": "1"}, {"size": "1"}, {"size": "120"}, {"size": "480"}]}}}}}, {"name": "Func/StatefulPartitionedCall/StatefulPartitionedCall/input/_445", "op": "Const", "input": ["^inputs"], "attr": {"value": {"tensor": {"dtype": "DT_FLOAT", "tensorShape": {"dim": [{"size": "480"}]}}}, "dtype": {"type": "DT_FLOAT"}}}, {"name": "StatefulPartitionedCall/StatefulPartitionedCall/predict/MobilenetV3/expanded_conv_10/squeeze_excite/Conv_1/add/y", "op": "Const", "input": ["^inputs"], "attr": {"dtype": {"type": "DT_FLOAT"}, "value": {"tensor": {"dtype": "DT_FLOAT", "tensorShape": {}}}}}, {"name": "StatefulPartitionedCall/StatefulPartitionedCall/predict/MobilenetV3/expanded_conv_10/depthwise/hard_swish/mul_1/y", "op": "Const", "input": ["^inputs"], "attr": {"dtype": {"type": "DT_FLOAT"}, "value": {"tensor": {"dtype": "DT_FLOAT", "tensorShape": {}}}}}, {"name": "StatefulPartitionedCall/StatefulPartitionedCall/predict/MobilenetV3/expanded_conv_10/expand/hard_swish/mul_1/y", "op": "Const", "input": ["^inputs"], "attr": {"value": {"tensor": {"dtype": "DT_FLOAT", "tensorShape": {}}}, "dtype": {"type": "DT_FLOAT"}}}, {"name": "StatefulPartitionedCall/StatefulPartitionedCall/predict/MobilenetV3/expanded_conv_9/depthwise/hard_swish/mul_1/y", "op": "Const", "input": ["^inputs"], "attr": {"dtype": {"type": "DT_FLOAT"}, "value": {"tensor": {"dtype": "DT_FLOAT", "tensorShape": {}}}}}, {"name": "StatefulPartitionedCall/StatefulPartitionedCall/predict/MobilenetV3/expanded_conv_9/expand/hard_swish/mul_1/y", "op": "Const", "input": ["^inputs"], "attr": {"value": {"tensor": {"dtype": "DT_FLOAT", "tensorShape": {}}}, "dtype": {"type": "DT_FLOAT"}}}, {"name": "StatefulPartitionedCall/StatefulPartitionedCall/predict/MobilenetV3/expanded_conv_9/expand/hard_swish/add/y", "op": "Const", "input": ["^inputs"], "attr": {"value": {"tensor": {"dtype": "DT_FLOAT", "tensorShape": {}}}, "dtype": {"type": "DT_FLOAT"}}}, {"name": "StatefulPartitionedCall/StatefulPartitionedCall/predict/MobilenetV3/expanded_conv_9/depthwise/hard_swish/add/y", "op": "Const", "input": ["^inputs"], "attr": {"value": {"tensor": {"dtype": "DT_FLOAT", "tensorShape": {}}}, "dtype": {"type": "DT_FLOAT"}}}, {"name": "StatefulPartitionedCall/StatefulPartitionedCall/predict/MobilenetV3/expanded_conv_8/depthwise/hard_swish/mul_1/y", "op": "Const", "input": ["^inputs"], "attr": {"dtype": {"type": "DT_FLOAT"}, "value": {"tensor": {"dtype": "DT_FLOAT", "tensorShape": {}}}}}, {"name": "StatefulPartitionedCall/StatefulPartitionedCall/predict/MobilenetV3/expanded_conv_8/expand/hard_swish/mul_1/y", "op": "Const", "input": ["^inputs"], "attr": {"value": {"tensor": {"dtype": "DT_FLOAT", "tensorShape": {}}}, "dtype": {"type": "DT_FLOAT"}}}, {"name": "StatefulPartitionedCall/StatefulPartitionedCall/predict/MobilenetV3/expanded_conv_8/expand/hard_swish/add/y", "op": "Const", "input": ["^inputs"], "attr": {"value": {"tensor": {"dtype": "DT_FLOAT", "tensorShape": {}}}, "dtype": {"type": "DT_FLOAT"}}}, {"name": "StatefulPartitionedCall/StatefulPartitionedCall/predict/MobilenetV3/expanded_conv_8/depthwise/hard_swish/add/y", "op": "Const", "input": ["^inputs"], "attr": {"value": {"tensor": {"dtype": "DT_FLOAT", "tensorShape": {}}}, "dtype": {"type": "DT_FLOAT"}}}, {"name": "StatefulPartitionedCall/StatefulPartitionedCall/predict/MobilenetV3/expanded_conv_7/depthwise/hard_swish/mul_1/y", "op": "Const", "input": ["^inputs"], "attr": {"dtype": {"type": "DT_FLOAT"}, "value": {"tensor": {"dtype": "DT_FLOAT", "tensorShape": {}}}}}, {"name": "StatefulPartitionedCall/StatefulPartitionedCall/predict/MobilenetV3/expanded_conv_7/expand/hard_swish/mul_1/y", "op": "Const", "input": ["^inputs"], "attr": {"value": {"tensor": {"dtype": "DT_FLOAT", "tensorShape": {}}}, "dtype": {"type": "DT_FLOAT"}}}, {"name": "StatefulPartitionedCall/StatefulPartitionedCall/predict/MobilenetV3/expanded_conv_7/expand/hard_swish/add/y", "op": "Const", "input": ["^inputs"], "attr": {"dtype": {"type": "DT_FLOAT"}, "value": {"tensor": {"dtype": "DT_FLOAT", "tensorShape": {}}}}}, {"name": "StatefulPartitionedCall/StatefulPartitionedCall/predict/MobilenetV3/expanded_conv_7/depthwise/hard_swish/add/y", "op": "Const", "input": ["^inputs"], "attr": {"value": {"tensor": {"dtype": "DT_FLOAT", "tensorShape": {}}}, "dtype": {"type": "DT_FLOAT"}}}, {"name": "StatefulPartitionedCall/StatefulPartitionedCall/predict/MobilenetV3/expanded_conv_6/depthwise/hard_swish/mul_1/y", "op": "Const", "input": ["^inputs"], "attr": {"dtype": {"type": "DT_FLOAT"}, "value": {"tensor": {"dtype": "DT_FLOAT", "tensorShape": {}}}}}, {"name": "StatefulPartitionedCall/StatefulPartitionedCall/predict/MobilenetV3/expanded_conv_6/expand/hard_swish/mul_1/y", "op": "Const", "input": ["^inputs"], "attr": {"dtype": {"type": "DT_FLOAT"}, "value": {"tensor": {"dtype": "DT_FLOAT", "tensorShape": {}}}}}, {"name": "StatefulPartitionedCall/StatefulPartitionedCall/predict/MobilenetV3/expanded_conv_5/squeeze_excite/Conv_1/mul/y", "op": "Const", "input": ["^inputs"], "attr": {"dtype": {"type": "DT_FLOAT"}, "value": {"tensor": {"dtype": "DT_FLOAT", "tensorShape": {}}}}}, {"name": "StatefulPartitionedCall/StatefulPartitionedCall/predict/MobilenetV3/expanded_conv_5/squeeze_excite/Mean/reduction_indices", "op": "Const", "input": ["^inputs"], "attr": {"dtype": {"type": "DT_INT32"}, "value": {"tensor": {"dtype": "DT_INT32", "tensorShape": {"dim": [{"size": "2"}]}}}}}, {"name": "Func/StatefulPartitionedCall/StatefulPartitionedCall/input/_363", "op": "Const", "input": ["^inputs"], "attr": {"dtype": {"type": "DT_FLOAT"}, "value": {"tensor": {"dtype": "DT_FLOAT", "tensorShape": {"dim": [{"size": "1"}, {"size": "1"}, {"size": "120"}, {"size": "32"}]}}}}}, {"name": "Func/StatefulPartitionedCall/StatefulPartitionedCall/input/_364", "op": "Const", "input": ["^inputs"], "attr": {"dtype": {"type": "DT_FLOAT"}, "value": {"tensor": {"dtype": "DT_FLOAT", "tensorShape": {"dim": [{"size": "32"}]}}}}}, {"name": "Func/StatefulPartitionedCall/StatefulPartitionedCall/input/_365", "op": "Const", "input": ["^inputs"], "attr": {"value": {"tensor": {"dtype": "DT_FLOAT", "tensorShape": {"dim": [{"size": "1"}, {"size": "1"}, {"size": "32"}, {"size": "120"}]}}}, "dtype": {"type": "DT_FLOAT"}}}, {"name": "Func/StatefulPartitionedCall/StatefulPartitionedCall/input/_366", "op": "Const", "input": ["^inputs"], "attr": {"dtype": {"type": "DT_FLOAT"}, "value": {"tensor": {"dtype": "DT_FLOAT", "tensorShape": {"dim": [{"size": "120"}]}}}}}, {"name": "StatefulPartitionedCall/StatefulPartitionedCall/predict/MobilenetV3/expanded_conv_5/squeeze_excite/Conv_1/add/y", "op": "Const", "input": ["^inputs"], "attr": {"value": {"tensor": {"dtype": "DT_FLOAT", "tensorShape": {}}}, "dtype": {"type": "DT_FLOAT"}}}, {"name": "StatefulPartitionedCall/StatefulPartitionedCall/predict/MobilenetV3/expanded_conv_4/squeeze_excite/Conv_1/mul/y", "op": "Const", "input": ["^inputs"], "attr": {"value": {"tensor": {"dtype": "DT_FLOAT", "tensorShape": {}}}, "dtype": {"type": "DT_FLOAT"}}}, {"name": "StatefulPartitionedCall/StatefulPartitionedCall/predict/MobilenetV3/expanded_conv_4/squeeze_excite/Mean/reduction_indices", "op": "Const", "input": ["^inputs"], "attr": {"value": {"tensor": {"dtype": "DT_INT32", "tensorShape": {"dim": [{"size": "2"}]}}}, "dtype": {"type": "DT_INT32"}}}, {"name": "Func/StatefulPartitionedCall/StatefulPartitionedCall/input/_344", "op": "Const", "input": ["^inputs"], "attr": {"value": {"tensor": {"dtype": "DT_FLOAT", "tensorShape": {"dim": [{"size": "1"}, {"size": "1"}, {"size": "120"}, {"size": "32"}]}}}, "dtype": {"type": "DT_FLOAT"}}}, {"name": "Func/StatefulPartitionedCall/StatefulPartitionedCall/input/_345", "op": "Const", "input": ["^inputs"], "attr": {"dtype": {"type": "DT_FLOAT"}, "value": {"tensor": {"dtype": "DT_FLOAT", "tensorShape": {"dim": [{"size": "32"}]}}}}}, {"name": "Func/StatefulPartitionedCall/StatefulPartitionedCall/input/_346", "op": "Const", "input": ["^inputs"], "attr": {"value": {"tensor": {"dtype": "DT_FLOAT", "tensorShape": {"dim": [{"size": "1"}, {"size": "1"}, {"size": "32"}, {"size": "120"}]}}}, "dtype": {"type": "DT_FLOAT"}}}, {"name": "Func/StatefulPartitionedCall/StatefulPartitionedCall/input/_347", "op": "Const", "input": ["^inputs"], "attr": {"dtype": {"type": "DT_FLOAT"}, "value": {"tensor": {"dtype": "DT_FLOAT", "tensorShape": {"dim": [{"size": "120"}]}}}}}, {"name": "StatefulPartitionedCall/StatefulPartitionedCall/predict/MobilenetV3/expanded_conv_4/squeeze_excite/Conv_1/add/y", "op": "Const", "input": ["^inputs"], "attr": {"value": {"tensor": {"dtype": "DT_FLOAT", "tensorShape": {}}}, "dtype": {"type": "DT_FLOAT"}}}, {"name": "StatefulPartitionedCall/StatefulPartitionedCall/predict/MobilenetV3/expanded_conv_3/squeeze_excite/Conv_1/mul/y", "op": "Const", "input": ["^inputs"], "attr": {"dtype": {"type": "DT_FLOAT"}, "value": {"tensor": {"dtype": "DT_FLOAT", "tensorShape": {}}}}}, {"name": "StatefulPartitionedCall/StatefulPartitionedCall/predict/MobilenetV3/expanded_conv_3/squeeze_excite/Mean/reduction_indices", "op": "Const", "input": ["^inputs"], "attr": {"value": {"tensor": {"dtype": "DT_INT32", "tensorShape": {"dim": [{"size": "2"}]}}}, "dtype": {"type": "DT_INT32"}}}, {"name": "Func/StatefulPartitionedCall/StatefulPartitionedCall/input/_325", "op": "Const", "input": ["^inputs"], "attr": {"value": {"tensor": {"dtype": "DT_FLOAT", "tensorShape": {"dim": [{"size": "1"}, {"size": "1"}, {"size": "72"}, {"size": "24"}]}}}, "dtype": {"type": "DT_FLOAT"}}}, {"name": "Func/StatefulPartitionedCall/StatefulPartitionedCall/input/_326", "op": "Const", "input": ["^inputs"], "attr": {"value": {"tensor": {"dtype": "DT_FLOAT", "tensorShape": {"dim": [{"size": "24"}]}}}, "dtype": {"type": "DT_FLOAT"}}}, {"name": "Func/StatefulPartitionedCall/StatefulPartitionedCall/input/_327", "op": "Const", "input": ["^inputs"], "attr": {"value": {"tensor": {"dtype": "DT_FLOAT", "tensorShape": {"dim": [{"size": "1"}, {"size": "1"}, {"size": "24"}, {"size": "72"}]}}}, "dtype": {"type": "DT_FLOAT"}}}, {"name": "Func/StatefulPartitionedCall/StatefulPartitionedCall/input/_328", "op": "Const", "input": ["^inputs"], "attr": {"dtype": {"type": "DT_FLOAT"}, "value": {"tensor": {"dtype": "DT_FLOAT", "tensorShape": {"dim": [{"size": "72"}]}}}}}, {"name": "StatefulPartitionedCall/StatefulPartitionedCall/predict/MobilenetV3/expanded_conv_3/squeeze_excite/Conv_1/add/y", "op": "Const", "input": ["^inputs"], "attr": {"value": {"tensor": {"dtype": "DT_FLOAT", "tensorShape": {}}}, "dtype": {"type": "DT_FLOAT"}}}, {"name": "StatefulPartitionedCall/StatefulPartitionedCall/predict/MobilenetV3/Conv/hard_swish/mul_1/y", "op": "Const", "input": ["^inputs"], "attr": {"dtype": {"type": "DT_FLOAT"}, "value": {"tensor": {"dtype": "DT_FLOAT", "tensorShape": {}}}}}, {"name": "StatefulPartitionedCall/StatefulPartitionedCall/predict/hub_input/Mul/y", "op": "Const", "input": ["^inputs"], "attr": {"value": {"tensor": {"dtype": "DT_FLOAT", "tensorShape": {}}}, "dtype": {"type": "DT_FLOAT"}}}, {"name": "StatefulPartitionedCall/StatefulPartitionedCall/predict/hub_input/Sub/y", "op": "Const", "input": ["^inputs"], "attr": {"value": {"tensor": {"dtype": "DT_FLOAT", "tensorShape": {}}}, "dtype": {"type": "DT_FLOAT"}}}, {"name": "StatefulPartitionedCall/StatefulPartitionedCall/predict/MobilenetV3/Conv/hard_swish/add/y", "op": "Const", "input": ["^inputs"], "attr": {"dtype": {"type": "DT_FLOAT"}, "value": {"tensor": {"dtype": "DT_FLOAT", "tensorShape": {}}}}}, {"name": "StatefulPartitionedCall/StatefulPartitionedCall/predict/MobilenetV3/expanded_conv_6/expand/hard_swish/add/y", "op": "Const", "input": ["^inputs"], "attr": {"value": {"tensor": {"dtype": "DT_FLOAT", "tensorShape": {}}}, "dtype": {"type": "DT_FLOAT"}}}, {"name": "StatefulPartitionedCall/StatefulPartitionedCall/predict/MobilenetV3/expanded_conv_6/depthwise/hard_swish/add/y", "op": "Const", "input": ["^inputs"], "attr": {"dtype": {"type": "DT_FLOAT"}, "value": {"tensor": {"dtype": "DT_FLOAT", "tensorShape": {}}}}}, {"name": "StatefulPartitionedCall/StatefulPartitionedCall/predict/MobilenetV3/expanded_conv_10/expand/hard_swish/add/y", "op": "Const", "input": ["^inputs"], "attr": {"value": {"tensor": {"dtype": "DT_FLOAT", "tensorShape": {}}}, "dtype": {"type": "DT_FLOAT"}}}, {"name": "StatefulPartitionedCall/StatefulPartitionedCall/predict/MobilenetV3/expanded_conv_10/depthwise/hard_swish/add/y", "op": "Const", "input": ["^inputs"], "attr": {"dtype": {"type": "DT_FLOAT"}, "value": {"tensor": {"dtype": "DT_FLOAT", "tensorShape": {}}}}}, {"name": "StatefulPartitionedCall/StatefulPartitionedCall/predict/MobilenetV3/expanded_conv_12/expand/hard_swish/add/y", "op": "Const", "input": ["^inputs"], "attr": {"value": {"tensor": {"dtype": "DT_FLOAT", "tensorShape": {}}}, "dtype": {"type": "DT_FLOAT"}}}, {"name": "StatefulPartitionedCall/StatefulPartitionedCall/predict/MobilenetV3/expanded_conv_12/depthwise/hard_swish/add/y", "op": "Const", "input": ["^inputs"], "attr": {"value": {"tensor": {"dtype": "DT_FLOAT", "tensorShape": {}}}, "dtype": {"type": "DT_FLOAT"}}}, {"name": "StatefulPartitionedCall/StatefulPartitionedCall/predict/MobilenetV3/Conv_1/hard_swish/add/y", "op": "Const", "input": ["^inputs"], "attr": {"dtype": {"type": "DT_FLOAT"}, "value": {"tensor": {"dtype": "DT_FLOAT", "tensorShape": {}}}}}, {"name": "Func/StatefulPartitionedCall/StatefulPartitionedCall/input/_532", "op": "Const", "input": ["^inputs"], "attr": {"value": {"tensor": {"dtype": "DT_FLOAT", "tensorShape": {"dim": [{"size": "1"}, {"size": "1"}, {"size": "960"}, {"size": "1280"}]}}}, "dtype": {"type": "DT_FLOAT"}}}, {"name": "Func/StatefulPartitionedCall/StatefulPartitionedCall/input/_533", "op": "Const", "input": ["^inputs"], "attr": {"dtype": {"type": "DT_FLOAT"}, "value": {"tensor": {"dtype": "DT_FLOAT", "tensorShape": {"dim": [{"size": "1280"}]}}}}}, {"name": "StatefulPartitionedCall/StatefulPartitionedCall/predict/MobilenetV3/Conv_2/hard_swish/add/y", "op": "Const", "input": ["^inputs"], "attr": {"value": {"tensor": {"dtype": "DT_FLOAT", "tensorShape": {}}}, "dtype": {"type": "DT_FLOAT"}}}, {"name": "StatefulPartitionedCall/StatefulPartitionedCall/predict/hub_input/Mul", "op": "Mul", "input": ["inputs", "StatefulPartitionedCall/StatefulPartitionedCall/predict/hub_input/Mul/y"], "attr": {"T": {"type": "DT_FLOAT"}}}, {"name": "StatefulPartitionedCall/StatefulPartitionedCall/predict/hub_input/Sub", "op": "Sub", "input": ["StatefulPartitionedCall/StatefulPartitionedCall/predict/hub_input/Mul", "StatefulPartitionedCall/StatefulPartitionedCall/predict/hub_input/Sub/y"], "attr": {"T": {"type": "DT_FLOAT"}}}, {"name": "StatefulPartitionedCall/StatefulPartitionedCall/predict/MobilenetV3/Conv/BatchNorm/FusedBatchNormV3", "op": "_FusedConv2D", "input": ["StatefulPartitionedCall/StatefulPartitionedCall/predict/hub_input/Sub", "StatefulPartitionedCall/StatefulPartitionedCall/predict/MobilenetV3/Conv/Conv2D_weights", "StatefulPartitionedCall/StatefulPartitionedCall/predict/MobilenetV3/Conv/Conv2D_bn_offset"], "device": "/device:CPU:0", "attr": {"explicit_paddings": {"list": {}}, "use_cudnn_on_gpu": {"b": true}, "data_format": {"s": "TkhXQw=="}, "dilations": {"list": {"i": ["1", "1", "1", "1"]}}, "strides": {"list": {"i": ["1", "2", "2", "1"]}}, "epsilon": {"f": 0.0}, "padding": {"s": "U0FNRQ=="}, "fused_ops": {"list": {"s": ["Qmlhc0FkZA=="]}}, "num_args": {"i": "1"}, "T": {"type": "DT_FLOAT"}}}, {"name": "StatefulPartitionedCall/StatefulPartitionedCall/predict/MobilenetV3/Conv/hard_swish/mul", "op": "Mul", "input": ["StatefulPartitionedCall/StatefulPartitionedCall/predict/MobilenetV3/Conv/hard_swish/mul_1/y", "StatefulPartitionedCall/StatefulPartitionedCall/predict/MobilenetV3/Conv/BatchNorm/FusedBatchNormV3"], "attr": {"T": {"type": "DT_FLOAT"}, "_grappler_ArithmeticOptimizer_MinimizeBroadcasts": {"b": true}}}, {"name": "StatefulPartitionedCall/StatefulPartitionedCall/predict/MobilenetV3/Conv/hard_swish/add", "op": "AddV2", "input": ["StatefulPartitionedCall/StatefulPartitionedCall/predict/MobilenetV3/Conv/BatchNorm/FusedBatchNormV3", "StatefulPartitionedCall/StatefulPartitionedCall/predict/MobilenetV3/Conv/hard_swish/add/y"], "attr": {"T": {"type": "DT_FLOAT"}}}, {"name": "StatefulPartitionedCall/StatefulPartitionedCall/predict/MobilenetV3/Conv/hard_swish/Relu6", "op": "Relu6", "input": ["StatefulPartitionedCall/StatefulPartitionedCall/predict/MobilenetV3/Conv/hard_swish/add"], "attr": {"T": {"type": "DT_FLOAT"}}}, {"name": "StatefulPartitionedCall/StatefulPartitionedCall/predict/MobilenetV3/Conv/hard_swish/mul_1", "op": "Mul", "input": ["StatefulPartitionedCall/StatefulPartitionedCall/predict/MobilenetV3/Conv/hard_swish/mul", "StatefulPartitionedCall/StatefulPartitionedCall/predict/MobilenetV3/Conv/hard_swish/Relu6"], "attr": {"_grappler_ArithmeticOptimizer_MinimizeBroadcasts": {"b": true}, "T": {"type": "DT_FLOAT"}}}, {"name": "StatefulPartitionedCall/StatefulPartitionedCall/predict/MobilenetV3/expanded_conv/depthwise/depthwise", "op": "FusedDepthwiseConv2dNative", "input": ["StatefulPartitionedCall/StatefulPartitionedCall/predict/MobilenetV3/Conv/hard_swish/mul_1", "StatefulPartitionedCall/StatefulPartitionedCall/predict/MobilenetV3/expanded_conv/depthwise/depthwise_weights", "StatefulPartitionedCall/StatefulPartitionedCall/predict/MobilenetV3/expanded_conv/depthwise/depthwise_bn_offset"], "attr": {"dilations": {"list": {"i": ["1", "1", "1", "1"]}}, "padding": {"s": "U0FNRQ=="}, "fused_ops": {"list": {"s": ["Qmlhc0FkZA==", "UmVsdQ=="]}}, "explicit_paddings": {"list": {}}, "num_args": {"i": "1"}, "data_format": {"s": "TkhXQw=="}, "strides": {"list": {"i": ["1", "1", "1", "1"]}}, "T": {"type": "DT_FLOAT"}}}, {"name": "StatefulPartitionedCall/StatefulPartitionedCall/predict/MobilenetV3/expanded_conv/project/BatchNorm/FusedBatchNormV3", "op": "_FusedConv2D", "input": ["StatefulPartitionedCall/StatefulPartitionedCall/predict/MobilenetV3/expanded_conv/depthwise/depthwise", "StatefulPartitionedCall/StatefulPartitionedCall/predict/MobilenetV3/expanded_conv/project/Conv2D_weights", "StatefulPartitionedCall/StatefulPartitionedCall/predict/MobilenetV3/expanded_conv/project/Conv2D_bn_offset"], "device": "/device:CPU:0", "attr": {"data_format": {"s": "TkhXQw=="}, "padding": {"s": "U0FNRQ=="}, "T": {"type": "DT_FLOAT"}, "dilations": {"list": {"i": ["1", "1", "1", "1"]}}, "explicit_paddings": {"list": {}}, "num_args": {"i": "1"}, "fused_ops": {"list": {"s": ["Qmlhc0FkZA=="]}}, "strides": {"list": {"i": ["1", "1", "1", "1"]}}, "use_cudnn_on_gpu": {"b": true}, "epsilon": {"f": 0.0}}}, {"name": "StatefulPartitionedCall/StatefulPartitionedCall/predict/MobilenetV3/expanded_conv/add", "op": "AddV2", "input": ["StatefulPartitionedCall/StatefulPartitionedCall/predict/MobilenetV3/expanded_conv/project/BatchNorm/FusedBatchNormV3", "StatefulPartitionedCall/StatefulPartitionedCall/predict/MobilenetV3/Conv/hard_swish/mul_1"], "attr": {"T": {"type": "DT_FLOAT"}}}, {"name": "StatefulPartitionedCall/StatefulPartitionedCall/predict/MobilenetV3/expanded_conv_1/expand/Relu", "op": "_FusedConv2D", "input": ["StatefulPartitionedCall/StatefulPartitionedCall/predict/MobilenetV3/expanded_conv/add", "StatefulPartitionedCall/StatefulPartitionedCall/predict/MobilenetV3/expanded_conv_1/expand/Conv2D_weights", "StatefulPartitionedCall/StatefulPartitionedCall/predict/MobilenetV3/expanded_conv_1/expand/Conv2D_bn_offset"], "device": "/device:CPU:0", "attr": {"dilations": {"list": {"i": ["1", "1", "1", "1"]}}, "padding": {"s": "U0FNRQ=="}, "data_format": {"s": "TkhXQw=="}, "T": {"type": "DT_FLOAT"}, "num_args": {"i": "1"}, "epsilon": {"f": 0.0}, "fused_ops": {"list": {"s": ["Qmlhc0FkZA==", "UmVsdQ=="]}}, "strides": {"list": {"i": ["1", "1", "1", "1"]}}, "explicit_paddings": {"list": {}}, "use_cudnn_on_gpu": {"b": true}}}, {"name": "StatefulPartitionedCall/StatefulPartitionedCall/predict/MobilenetV3/expanded_conv_1/depthwise/depthwise", "op": "FusedDepthwiseConv2dNative", "input": ["StatefulPartitionedCall/StatefulPartitionedCall/predict/MobilenetV3/expanded_conv_1/expand/Relu", "StatefulPartitionedCall/StatefulPartitionedCall/predict/MobilenetV3/expanded_conv_1/depthwise/depthwise_weights", "StatefulPartitionedCall/StatefulPartitionedCall/predict/MobilenetV3/expanded_conv_1/depthwise/depthwise_bn_offset"], "attr": {"num_args": {"i": "1"}, "strides": {"list": {"i": ["1", "2", "2", "1"]}}, "dilations": {"list": {"i": ["1", "1", "1", "1"]}}, "padding": {"s": "U0FNRQ=="}, "data_format": {"s": "TkhXQw=="}, "fused_ops": {"list": {"s": ["Qmlhc0FkZA==", "UmVsdQ=="]}}, "T": {"type": "DT_FLOAT"}, "explicit_paddings": {"list": {}}}}, {"name": "StatefulPartitionedCall/StatefulPartitionedCall/predict/MobilenetV3/expanded_conv_1/project/BatchNorm/FusedBatchNormV3", "op": "_FusedConv2D", "input": ["StatefulPartitionedCall/StatefulPartitionedCall/predict/MobilenetV3/expanded_conv_1/depthwise/depthwise", "StatefulPartitionedCall/StatefulPartitionedCall/predict/MobilenetV3/expanded_conv_1/project/Conv2D_weights", "StatefulPartitionedCall/StatefulPartitionedCall/predict/MobilenetV3/expanded_conv_1/project/Conv2D_bn_offset"], "device": "/device:CPU:0", "attr": {"dilations": {"list": {"i": ["1", "1", "1", "1"]}}, "strides": {"list": {"i": ["1", "1", "1", "1"]}}, "explicit_paddings": {"list": {}}, "T": {"type": "DT_FLOAT"}, "epsilon": {"f": 0.0}, "use_cudnn_on_gpu": {"b": true}, "num_args": {"i": "1"}, "fused_ops": {"list": {"s": ["Qmlhc0FkZA=="]}}, "data_format": {"s": "TkhXQw=="}, "padding": {"s": "U0FNRQ=="}}}, {"name": "StatefulPartitionedCall/StatefulPartitionedCall/predict/MobilenetV3/expanded_conv_2/expand/Relu", "op": "_FusedConv2D", "input": ["StatefulPartitionedCall/StatefulPartitionedCall/predict/MobilenetV3/expanded_conv_1/project/BatchNorm/FusedBatchNormV3", "StatefulPartitionedCall/StatefulPartitionedCall/predict/MobilenetV3/expanded_conv_2/expand/Conv2D_weights", "StatefulPartitionedCall/StatefulPartitionedCall/predict/MobilenetV3/expanded_conv_2/expand/Conv2D_bn_offset"], "device": "/device:CPU:0", "attr": {"fused_ops": {"list": {"s": ["Qmlhc0FkZA==", "UmVsdQ=="]}}, "use_cudnn_on_gpu": {"b": true}, "dilations": {"list": {"i": ["1", "1", "1", "1"]}}, "epsilon": {"f": 0.0}, "num_args": {"i": "1"}, "strides": {"list": {"i": ["1", "1", "1", "1"]}}, "data_format": {"s": "TkhXQw=="}, "padding": {"s": "U0FNRQ=="}, "explicit_paddings": {"list": {}}, "T": {"type": "DT_FLOAT"}}}, {"name": "StatefulPartitionedCall/StatefulPartitionedCall/predict/MobilenetV3/expanded_conv_2/depthwise/depthwise", "op": "FusedDepthwiseConv2dNative", "input": ["StatefulPartitionedCall/StatefulPartitionedCall/predict/MobilenetV3/expanded_conv_2/expand/Relu", "StatefulPartitionedCall/StatefulPartitionedCall/predict/MobilenetV3/expanded_conv_2/depthwise/depthwise_weights", "StatefulPartitionedCall/StatefulPartitionedCall/predict/MobilenetV3/expanded_conv_2/depthwise/depthwise_bn_offset"], "attr": {"dilations": {"list": {"i": ["1", "1", "1", "1"]}}, "num_args": {"i": "1"}, "strides": {"list": {"i": ["1", "1", "1", "1"]}}, "padding": {"s": "U0FNRQ=="}, "explicit_paddings": {"list": {}}, "fused_ops": {"list": {"s": ["Qmlhc0FkZA==", "UmVsdQ=="]}}, "T": {"type": "DT_FLOAT"}, "data_format": {"s": "TkhXQw=="}}}, {"name": "StatefulPartitionedCall/StatefulPartitionedCall/predict/MobilenetV3/expanded_conv_2/project/BatchNorm/FusedBatchNormV3", "op": "_FusedConv2D", "input": ["StatefulPartitionedCall/StatefulPartitionedCall/predict/MobilenetV3/expanded_conv_2/depthwise/depthwise", "StatefulPartitionedCall/StatefulPartitionedCall/predict/MobilenetV3/expanded_conv_2/project/Conv2D_weights", "StatefulPartitionedCall/StatefulPartitionedCall/predict/MobilenetV3/expanded_conv_2/project/Conv2D_bn_offset"], "device": "/device:CPU:0", "attr": {"data_format": {"s": "TkhXQw=="}, "T": {"type": "DT_FLOAT"}, "strides": {"list": {"i": ["1", "1", "1", "1"]}}, "use_cudnn_on_gpu": {"b": true}, "num_args": {"i": "1"}, "epsilon": {"f": 0.0}, "padding": {"s": "U0FNRQ=="}, "explicit_paddings": {"list": {}}, "dilations": {"list": {"i": ["1", "1", "1", "1"]}}, "fused_ops": {"list": {"s": ["Qmlhc0FkZA=="]}}}}, {"name": "StatefulPartitionedCall/StatefulPartitionedCall/predict/MobilenetV3/expanded_conv_2/add", "op": "AddV2", "input": ["StatefulPartitionedCall/StatefulPartitionedCall/predict/MobilenetV3/expanded_conv_2/project/BatchNorm/FusedBatchNormV3", "StatefulPartitionedCall/StatefulPartitionedCall/predict/MobilenetV3/expanded_conv_1/project/BatchNorm/FusedBatchNormV3"], "attr": {"T": {"type": "DT_FLOAT"}}}, {"name": "StatefulPartitionedCall/StatefulPartitionedCall/predict/MobilenetV3/expanded_conv_3/expand/Relu", "op": "_FusedConv2D", "input": ["StatefulPartitionedCall/StatefulPartitionedCall/predict/MobilenetV3/expanded_conv_2/add", "StatefulPartitionedCall/StatefulPartitionedCall/predict/MobilenetV3/expanded_conv_3/expand/Conv2D_weights", "StatefulPartitionedCall/StatefulPartitionedCall/predict/MobilenetV3/expanded_conv_3/expand/Conv2D_bn_offset"], "device": "/device:CPU:0", "attr": {"T": {"type": "DT_FLOAT"}, "explicit_paddings": {"list": {}}, "data_format": {"s": "TkhXQw=="}, "fused_ops": {"list": {"s": ["Qmlhc0FkZA==", "UmVsdQ=="]}}, "padding": {"s": "U0FNRQ=="}, "num_args": {"i": "1"}, "dilations": {"list": {"i": ["1", "1", "1", "1"]}}, "epsilon": {"f": 0.0}, "use_cudnn_on_gpu": {"b": true}, "strides": {"list": {"i": ["1", "1", "1", "1"]}}}}, {"name": "StatefulPartitionedCall/StatefulPartitionedCall/predict/MobilenetV3/expanded_conv_3/depthwise/depthwise", "op": "FusedDepthwiseConv2dNative", "input": ["StatefulPartitionedCall/StatefulPartitionedCall/predict/MobilenetV3/expanded_conv_3/expand/Relu", "StatefulPartitionedCall/StatefulPartitionedCall/predict/MobilenetV3/expanded_conv_3/depthwise/depthwise_weights", "StatefulPartitionedCall/StatefulPartitionedCall/predict/MobilenetV3/expanded_conv_3/depthwise/depthwise_bn_offset"], "attr": {"fused_ops": {"list": {"s": ["Qmlhc0FkZA==", "UmVsdQ=="]}}, "padding": {"s": "U0FNRQ=="}, "strides": {"list": {"i": ["1", "2", "2", "1"]}}, "num_args": {"i": "1"}, "T": {"type": "DT_FLOAT"}, "dilations": {"list": {"i": ["1", "1", "1", "1"]}}, "data_format": {"s": "TkhXQw=="}, "explicit_paddings": {"list": {}}}}, {"name": "StatefulPartitionedCall/StatefulPartitionedCall/predict/MobilenetV3/expanded_conv_3/squeeze_excite/Mean", "op": "Mean", "input": ["StatefulPartitionedCall/StatefulPartitionedCall/predict/MobilenetV3/expanded_conv_3/depthwise/depthwise", "StatefulPartitionedCall/StatefulPartitionedCall/predict/MobilenetV3/expanded_conv_3/squeeze_excite/Mean/reduction_indices"], "attr": {"keep_dims": {"b": true}, "T": {"type": "DT_FLOAT"}, "Tidx": {"type": "DT_INT32"}}}, {"name": "StatefulPartitionedCall/StatefulPartitionedCall/predict/MobilenetV3/expanded_conv_3/squeeze_excite/Conv/Relu", "op": "_FusedConv2D", "input": ["StatefulPartitionedCall/StatefulPartitionedCall/predict/MobilenetV3/expanded_conv_3/squeeze_excite/Mean", "Func/StatefulPartitionedCall/StatefulPartitionedCall/input/_325", "Func/StatefulPartitionedCall/StatefulPartitionedCall/input/_326"], "device": "/device:CPU:0", "attr": {"strides": {"list": {"i": ["1", "1", "1", "1"]}}, "fused_ops": {"list": {"s": ["Qmlhc0FkZA==", "UmVsdQ=="]}}, "dilations": {"list": {"i": ["1", "1", "1", "1"]}}, "num_args": {"i": "1"}, "padding": {"s": "U0FNRQ=="}, "explicit_paddings": {"list": {}}, "T": {"type": "DT_FLOAT"}, "epsilon": {"f": 0.0}, "use_cudnn_on_gpu": {"b": true}, "data_format": {"s": "TkhXQw=="}}}, {"name": "StatefulPartitionedCall/StatefulPartitionedCall/predict/MobilenetV3/expanded_conv_3/squeeze_excite/Conv_1/BiasAdd", "op": "_FusedConv2D", "input": ["StatefulPartitionedCall/StatefulPartitionedCall/predict/MobilenetV3/expanded_conv_3/squeeze_excite/Conv/Relu", "Func/StatefulPartitionedCall/StatefulPartitionedCall/input/_327", "Func/StatefulPartitionedCall/StatefulPartitionedCall/input/_328"], "device": "/device:CPU:0", "attr": {"T": {"type": "DT_FLOAT"}, "explicit_paddings": {"list": {}}, "fused_ops": {"list": {"s": ["Qmlhc0FkZA=="]}}, "strides": {"list": {"i": ["1", "1", "1", "1"]}}, "epsilon": {"f": 0.0}, "dilations": {"list": {"i": ["1", "1", "1", "1"]}}, "use_cudnn_on_gpu": {"b": true}, "data_format": {"s": "TkhXQw=="}, "padding": {"s": "U0FNRQ=="}, "num_args": {"i": "1"}}}, {"name": "StatefulPartitionedCall/StatefulPartitionedCall/predict/MobilenetV3/expanded_conv_3/squeeze_excite/Conv_1/add", "op": "AddV2", "input": ["StatefulPartitionedCall/StatefulPartitionedCall/predict/MobilenetV3/expanded_conv_3/squeeze_excite/Conv_1/BiasAdd", "StatefulPartitionedCall/StatefulPartitionedCall/predict/MobilenetV3/expanded_conv_3/squeeze_excite/Conv_1/add/y"], "attr": {"T": {"type": "DT_FLOAT"}}}, {"name": "StatefulPartitionedCall/StatefulPartitionedCall/predict/MobilenetV3/expanded_conv_3/squeeze_excite/Conv_1/Relu6", "op": "Relu6", "input": ["StatefulPartitionedCall/StatefulPartitionedCall/predict/MobilenetV3/expanded_conv_3/squeeze_excite/Conv_1/add"], "attr": {"T": {"type": "DT_FLOAT"}}}, {"name": "StatefulPartitionedCall/StatefulPartitionedCall/predict/MobilenetV3/expanded_conv_3/squeeze_excite/Conv_1/mul", "op": "Mul", "input": ["StatefulPartitionedCall/StatefulPartitionedCall/predict/MobilenetV3/expanded_conv_3/squeeze_excite/Conv_1/mul/y", "StatefulPartitionedCall/StatefulPartitionedCall/predict/MobilenetV3/expanded_conv_3/squeeze_excite/Conv_1/Relu6"], "attr": {"T": {"type": "DT_FLOAT"}, "_grappler_ArithmeticOptimizer_MinimizeBroadcasts": {"b": true}}}, {"name": "StatefulPartitionedCall/StatefulPartitionedCall/predict/MobilenetV3/expanded_conv_3/squeeze_excite/mul", "op": "Mul", "input": ["StatefulPartitionedCall/StatefulPartitionedCall/predict/MobilenetV3/expanded_conv_3/squeeze_excite/Conv_1/mul", "StatefulPartitionedCall/StatefulPartitionedCall/predict/MobilenetV3/expanded_conv_3/depthwise/depthwise"], "attr": {"_grappler_ArithmeticOptimizer_MinimizeBroadcasts": {"b": true}, "T": {"type": "DT_FLOAT"}}}, {"name": "StatefulPartitionedCall/StatefulPartitionedCall/predict/MobilenetV3/expanded_conv_3/project/BatchNorm/FusedBatchNormV3", "op": "_FusedConv2D", "input": ["StatefulPartitionedCall/StatefulPartitionedCall/predict/MobilenetV3/expanded_conv_3/squeeze_excite/mul", "StatefulPartitionedCall/StatefulPartitionedCall/predict/MobilenetV3/expanded_conv_3/project/Conv2D_weights", "StatefulPartitionedCall/StatefulPartitionedCall/predict/MobilenetV3/expanded_conv_3/project/Conv2D_bn_offset"], "device": "/device:CPU:0", "attr": {"use_cudnn_on_gpu": {"b": true}, "epsilon": {"f": 0.0}, "strides": {"list": {"i": ["1", "1", "1", "1"]}}, "dilations": {"list": {"i": ["1", "1", "1", "1"]}}, "data_format": {"s": "TkhXQw=="}, "padding": {"s": "U0FNRQ=="}, "explicit_paddings": {"list": {}}, "T": {"type": "DT_FLOAT"}, "num_args": {"i": "1"}, "fused_ops": {"list": {"s": ["Qmlhc0FkZA=="]}}}}, {"name": "StatefulPartitionedCall/StatefulPartitionedCall/predict/MobilenetV3/expanded_conv_4/expand/Relu", "op": "_FusedConv2D", "input": ["StatefulPartitionedCall/StatefulPartitionedCall/predict/MobilenetV3/expanded_conv_3/project/BatchNorm/FusedBatchNormV3", "StatefulPartitionedCall/StatefulPartitionedCall/predict/MobilenetV3/expanded_conv_4/expand/Conv2D_weights", "StatefulPartitionedCall/StatefulPartitionedCall/predict/MobilenetV3/expanded_conv_4/expand/Conv2D_bn_offset"], "device": "/device:CPU:0", "attr": {"strides": {"list": {"i": ["1", "1", "1", "1"]}}, "padding": {"s": "U0FNRQ=="}, "fused_ops": {"list": {"s": ["Qmlhc0FkZA==", "UmVsdQ=="]}}, "data_format": {"s": "TkhXQw=="}, "dilations": {"list": {"i": ["1", "1", "1", "1"]}}, "use_cudnn_on_gpu": {"b": true}, "num_args": {"i": "1"}, "epsilon": {"f": 0.0}, "explicit_paddings": {"list": {}}, "T": {"type": "DT_FLOAT"}}}, {"name": "StatefulPartitionedCall/StatefulPartitionedCall/predict/MobilenetV3/expanded_conv_4/depthwise/depthwise", "op": "FusedDepthwiseConv2dNative", "input": ["StatefulPartitionedCall/StatefulPartitionedCall/predict/MobilenetV3/expanded_conv_4/expand/Relu", "StatefulPartitionedCall/StatefulPartitionedCall/predict/MobilenetV3/expanded_conv_4/depthwise/depthwise_weights", "StatefulPartitionedCall/StatefulPartitionedCall/predict/MobilenetV3/expanded_conv_4/depthwise/depthwise_bn_offset"], "attr": {"dilations": {"list": {"i": ["1", "1", "1", "1"]}}, "strides": {"list": {"i": ["1", "1", "1", "1"]}}, "explicit_paddings": {"list": {}}, "fused_ops": {"list": {"s": ["Qmlhc0FkZA==", "UmVsdQ=="]}}, "data_format": {"s": "TkhXQw=="}, "num_args": {"i": "1"}, "T": {"type": "DT_FLOAT"}, "padding": {"s": "U0FNRQ=="}}}, {"name": "StatefulPartitionedCall/StatefulPartitionedCall/predict/MobilenetV3/expanded_conv_4/squeeze_excite/Mean", "op": "Mean", "input": ["StatefulPartitionedCall/StatefulPartitionedCall/predict/MobilenetV3/expanded_conv_4/depthwise/depthwise", "StatefulPartitionedCall/StatefulPartitionedCall/predict/MobilenetV3/expanded_conv_4/squeeze_excite/Mean/reduction_indices"], "attr": {"T": {"type": "DT_FLOAT"}, "keep_dims": {"b": true}, "Tidx": {"type": "DT_INT32"}}}, {"name": "StatefulPartitionedCall/StatefulPartitionedCall/predict/MobilenetV3/expanded_conv_4/squeeze_excite/Conv/Relu", "op": "_FusedConv2D", "input": ["StatefulPartitionedCall/StatefulPartitionedCall/predict/MobilenetV3/expanded_conv_4/squeeze_excite/Mean", "Func/StatefulPartitionedCall/StatefulPartitionedCall/input/_344", "Func/StatefulPartitionedCall/StatefulPartitionedCall/input/_345"], "device": "/device:CPU:0", "attr": {"data_format": {"s": "TkhXQw=="}, "padding": {"s": "U0FNRQ=="}, "strides": {"list": {"i": ["1", "1", "1", "1"]}}, "T": {"type": "DT_FLOAT"}, "epsilon": {"f": 0.0}, "fused_ops": {"list": {"s": ["Qmlhc0FkZA==", "UmVsdQ=="]}}, "use_cudnn_on_gpu": {"b": true}, "explicit_paddings": {"list": {}}, "dilations": {"list": {"i": ["1", "1", "1", "1"]}}, "num_args": {"i": "1"}}}, {"name": "StatefulPartitionedCall/StatefulPartitionedCall/predict/MobilenetV3/expanded_conv_4/squeeze_excite/Conv_1/BiasAdd", "op": "_FusedConv2D", "input": ["StatefulPartitionedCall/StatefulPartitionedCall/predict/MobilenetV3/expanded_conv_4/squeeze_excite/Conv/Relu", "Func/StatefulPartitionedCall/StatefulPartitionedCall/input/_346", "Func/StatefulPartitionedCall/StatefulPartitionedCall/input/_347"], "device": "/device:CPU:0", "attr": {"dilations": {"list": {"i": ["1", "1", "1", "1"]}}, "use_cudnn_on_gpu": {"b": true}, "strides": {"list": {"i": ["1", "1", "1", "1"]}}, "fused_ops": {"list": {"s": ["Qmlhc0FkZA=="]}}, "num_args": {"i": "1"}, "padding": {"s": "U0FNRQ=="}, "explicit_paddings": {"list": {}}, "epsilon": {"f": 0.0}, "T": {"type": "DT_FLOAT"}, "data_format": {"s": "TkhXQw=="}}}, {"name": "StatefulPartitionedCall/StatefulPartitionedCall/predict/MobilenetV3/expanded_conv_4/squeeze_excite/Conv_1/add", "op": "AddV2", "input": ["StatefulPartitionedCall/StatefulPartitionedCall/predict/MobilenetV3/expanded_conv_4/squeeze_excite/Conv_1/BiasAdd", "StatefulPartitionedCall/StatefulPartitionedCall/predict/MobilenetV3/expanded_conv_4/squeeze_excite/Conv_1/add/y"], "attr": {"T": {"type": "DT_FLOAT"}}}, {"name": "StatefulPartitionedCall/StatefulPartitionedCall/predict/MobilenetV3/expanded_conv_4/squeeze_excite/Conv_1/Relu6", "op": "Relu6", "input": ["StatefulPartitionedCall/StatefulPartitionedCall/predict/MobilenetV3/expanded_conv_4/squeeze_excite/Conv_1/add"], "attr": {"T": {"type": "DT_FLOAT"}}}, {"name": "StatefulPartitionedCall/StatefulPartitionedCall/predict/MobilenetV3/expanded_conv_4/squeeze_excite/Conv_1/mul", "op": "Mul", "input": ["StatefulPartitionedCall/StatefulPartitionedCall/predict/MobilenetV3/expanded_conv_4/squeeze_excite/Conv_1/mul/y", "StatefulPartitionedCall/StatefulPartitionedCall/predict/MobilenetV3/expanded_conv_4/squeeze_excite/Conv_1/Relu6"], "attr": {"T": {"type": "DT_FLOAT"}, "_grappler_ArithmeticOptimizer_MinimizeBroadcasts": {"b": true}}}, {"name": "StatefulPartitionedCall/StatefulPartitionedCall/predict/MobilenetV3/expanded_conv_4/squeeze_excite/mul", "op": "Mul", "input": ["StatefulPartitionedCall/StatefulPartitionedCall/predict/MobilenetV3/expanded_conv_4/squeeze_excite/Conv_1/mul", "StatefulPartitionedCall/StatefulPartitionedCall/predict/MobilenetV3/expanded_conv_4/depthwise/depthwise"], "attr": {"_grappler_ArithmeticOptimizer_MinimizeBroadcasts": {"b": true}, "T": {"type": "DT_FLOAT"}}}, {"name": "StatefulPartitionedCall/StatefulPartitionedCall/predict/MobilenetV3/expanded_conv_4/project/BatchNorm/FusedBatchNormV3", "op": "_FusedConv2D", "input": ["StatefulPartitionedCall/StatefulPartitionedCall/predict/MobilenetV3/expanded_conv_4/squeeze_excite/mul", "StatefulPartitionedCall/StatefulPartitionedCall/predict/MobilenetV3/expanded_conv_4/project/Conv2D_weights", "StatefulPartitionedCall/StatefulPartitionedCall/predict/MobilenetV3/expanded_conv_4/project/Conv2D_bn_offset"], "device": "/device:CPU:0", "attr": {"num_args": {"i": "1"}, "fused_ops": {"list": {"s": ["Qmlhc0FkZA=="]}}, "T": {"type": "DT_FLOAT"}, "explicit_paddings": {"list": {}}, "dilations": {"list": {"i": ["1", "1", "1", "1"]}}, "data_format": {"s": "TkhXQw=="}, "use_cudnn_on_gpu": {"b": true}, "strides": {"list": {"i": ["1", "1", "1", "1"]}}, "epsilon": {"f": 0.0}, "padding": {"s": "U0FNRQ=="}}}, {"name": "StatefulPartitionedCall/StatefulPartitionedCall/predict/MobilenetV3/expanded_conv_4/add", "op": "AddV2", "input": ["StatefulPartitionedCall/StatefulPartitionedCall/predict/MobilenetV3/expanded_conv_4/project/BatchNorm/FusedBatchNormV3", "StatefulPartitionedCall/StatefulPartitionedCall/predict/MobilenetV3/expanded_conv_3/project/BatchNorm/FusedBatchNormV3"], "attr": {"T": {"type": "DT_FLOAT"}}}, {"name": "StatefulPartitionedCall/StatefulPartitionedCall/predict/MobilenetV3/expanded_conv_5/expand/Relu", "op": "_FusedConv2D", "input": ["StatefulPartitionedCall/StatefulPartitionedCall/predict/MobilenetV3/expanded_conv_4/add", "StatefulPartitionedCall/StatefulPartitionedCall/predict/MobilenetV3/expanded_conv_5/expand/Conv2D_weights", "StatefulPartitionedCall/StatefulPartitionedCall/predict/MobilenetV3/expanded_conv_5/expand/Conv2D_bn_offset"], "device": "/device:CPU:0", "attr": {"epsilon": {"f": 0.0}, "strides": {"list": {"i": ["1", "1", "1", "1"]}}, "padding": {"s": "U0FNRQ=="}, "explicit_paddings": {"list": {}}, "use_cudnn_on_gpu": {"b": true}, "fused_ops": {"list": {"s": ["Qmlhc0FkZA==", "UmVsdQ=="]}}, "T": {"type": "DT_FLOAT"}, "num_args": {"i": "1"}, "dilations": {"list": {"i": ["1", "1", "1", "1"]}}, "data_format": {"s": "TkhXQw=="}}}, {"name": "StatefulPartitionedCall/StatefulPartitionedCall/predict/MobilenetV3/expanded_conv_5/depthwise/depthwise", "op": "FusedDepthwiseConv2dNative", "input": ["StatefulPartitionedCall/StatefulPartitionedCall/predict/MobilenetV3/expanded_conv_5/expand/Relu", "StatefulPartitionedCall/StatefulPartitionedCall/predict/MobilenetV3/expanded_conv_5/depthwise/depthwise_weights", "StatefulPartitionedCall/StatefulPartitionedCall/predict/MobilenetV3/expanded_conv_5/depthwise/depthwise_bn_offset"], "attr": {"T": {"type": "DT_FLOAT"}, "dilations": {"list": {"i": ["1", "1", "1", "1"]}}, "fused_ops": {"list": {"s": ["Qmlhc0FkZA==", "UmVsdQ=="]}}, "num_args": {"i": "1"}, "explicit_paddings": {"list": {}}, "strides": {"list": {"i": ["1", "1", "1", "1"]}}, "padding": {"s": "U0FNRQ=="}, "data_format": {"s": "TkhXQw=="}}}, {"name": "StatefulPartitionedCall/StatefulPartitionedCall/predict/MobilenetV3/expanded_conv_5/squeeze_excite/Mean", "op": "Mean", "input": ["StatefulPartitionedCall/StatefulPartitionedCall/predict/MobilenetV3/expanded_conv_5/depthwise/depthwise", "StatefulPartitionedCall/StatefulPartitionedCall/predict/MobilenetV3/expanded_conv_5/squeeze_excite/Mean/reduction_indices"], "attr": {"T": {"type": "DT_FLOAT"}, "Tidx": {"type": "DT_INT32"}, "keep_dims": {"b": true}}}, {"name": "StatefulPartitionedCall/StatefulPartitionedCall/predict/MobilenetV3/expanded_conv_5/squeeze_excite/Conv/Relu", "op": "_FusedConv2D", "input": ["StatefulPartitionedCall/StatefulPartitionedCall/predict/MobilenetV3/expanded_conv_5/squeeze_excite/Mean", "Func/StatefulPartitionedCall/StatefulPartitionedCall/input/_363", "Func/StatefulPartitionedCall/StatefulPartitionedCall/input/_364"], "device": "/device:CPU:0", "attr": {"padding": {"s": "U0FNRQ=="}, "use_cudnn_on_gpu": {"b": true}, "explicit_paddings": {"list": {}}, "dilations": {"list": {"i": ["1", "1", "1", "1"]}}, "num_args": {"i": "1"}, "epsilon": {"f": 0.0}, "strides": {"list": {"i": ["1", "1", "1", "1"]}}, "fused_ops": {"list": {"s": ["Qmlhc0FkZA==", "UmVsdQ=="]}}, "data_format": {"s": "TkhXQw=="}, "T": {"type": "DT_FLOAT"}}}, {"name": "StatefulPartitionedCall/StatefulPartitionedCall/predict/MobilenetV3/expanded_conv_5/squeeze_excite/Conv_1/BiasAdd", "op": "_FusedConv2D", "input": ["StatefulPartitionedCall/StatefulPartitionedCall/predict/MobilenetV3/expanded_conv_5/squeeze_excite/Conv/Relu", "Func/StatefulPartitionedCall/StatefulPartitionedCall/input/_365", "Func/StatefulPartitionedCall/StatefulPartitionedCall/input/_366"], "device": "/device:CPU:0", "attr": {"fused_ops": {"list": {"s": ["Qmlhc0FkZA=="]}}, "T": {"type": "DT_FLOAT"}, "data_format": {"s": "TkhXQw=="}, "explicit_paddings": {"list": {}}, "epsilon": {"f": 0.0}, "dilations": {"list": {"i": ["1", "1", "1", "1"]}}, "num_args": {"i": "1"}, "use_cudnn_on_gpu": {"b": true}, "strides": {"list": {"i": ["1", "1", "1", "1"]}}, "padding": {"s": "U0FNRQ=="}}}, {"name": "StatefulPartitionedCall/StatefulPartitionedCall/predict/MobilenetV3/expanded_conv_5/squeeze_excite/Conv_1/add", "op": "AddV2", "input": ["StatefulPartitionedCall/StatefulPartitionedCall/predict/MobilenetV3/expanded_conv_5/squeeze_excite/Conv_1/BiasAdd", "StatefulPartitionedCall/StatefulPartitionedCall/predict/MobilenetV3/expanded_conv_5/squeeze_excite/Conv_1/add/y"], "attr": {"T": {"type": "DT_FLOAT"}}}, {"name": "StatefulPartitionedCall/StatefulPartitionedCall/predict/MobilenetV3/expanded_conv_5/squeeze_excite/Conv_1/Relu6", "op": "Relu6", "input": ["StatefulPartitionedCall/StatefulPartitionedCall/predict/MobilenetV3/expanded_conv_5/squeeze_excite/Conv_1/add"], "attr": {"T": {"type": "DT_FLOAT"}}}, {"name": "StatefulPartitionedCall/StatefulPartitionedCall/predict/MobilenetV3/expanded_conv_5/squeeze_excite/Conv_1/mul", "op": "Mul", "input": ["StatefulPartitionedCall/StatefulPartitionedCall/predict/MobilenetV3/expanded_conv_5/squeeze_excite/Conv_1/mul/y", "StatefulPartitionedCall/StatefulPartitionedCall/predict/MobilenetV3/expanded_conv_5/squeeze_excite/Conv_1/Relu6"], "attr": {"T": {"type": "DT_FLOAT"}, "_grappler_ArithmeticOptimizer_MinimizeBroadcasts": {"b": true}}}, {"name": "StatefulPartitionedCall/StatefulPartitionedCall/predict/MobilenetV3/expanded_conv_5/squeeze_excite/mul", "op": "Mul", "input": ["StatefulPartitionedCall/StatefulPartitionedCall/predict/MobilenetV3/expanded_conv_5/squeeze_excite/Conv_1/mul", "StatefulPartitionedCall/StatefulPartitionedCall/predict/MobilenetV3/expanded_conv_5/depthwise/depthwise"], "attr": {"_grappler_ArithmeticOptimizer_MinimizeBroadcasts": {"b": true}, "T": {"type": "DT_FLOAT"}}}, {"name": "StatefulPartitionedCall/StatefulPartitionedCall/predict/MobilenetV3/expanded_conv_5/project/BatchNorm/FusedBatchNormV3", "op": "_FusedConv2D", "input": ["StatefulPartitionedCall/StatefulPartitionedCall/predict/MobilenetV3/expanded_conv_5/squeeze_excite/mul", "StatefulPartitionedCall/StatefulPartitionedCall/predict/MobilenetV3/expanded_conv_5/project/Conv2D_weights", "StatefulPartitionedCall/StatefulPartitionedCall/predict/MobilenetV3/expanded_conv_5/project/Conv2D_bn_offset"], "device": "/device:CPU:0", "attr": {"fused_ops": {"list": {"s": ["Qmlhc0FkZA=="]}}, "data_format": {"s": "TkhXQw=="}, "dilations": {"list": {"i": ["1", "1", "1", "1"]}}, "padding": {"s": "U0FNRQ=="}, "T": {"type": "DT_FLOAT"}, "num_args": {"i": "1"}, "epsilon": {"f": 0.0}, "explicit_paddings": {"list": {}}, "strides": {"list": {"i": ["1", "1", "1", "1"]}}, "use_cudnn_on_gpu": {"b": true}}}, {"name": "StatefulPartitionedCall/StatefulPartitionedCall/predict/MobilenetV3/expanded_conv_5/add", "op": "AddV2", "input": ["StatefulPartitionedCall/StatefulPartitionedCall/predict/MobilenetV3/expanded_conv_5/project/BatchNorm/FusedBatchNormV3", "StatefulPartitionedCall/StatefulPartitionedCall/predict/MobilenetV3/expanded_conv_4/add"], "attr": {"T": {"type": "DT_FLOAT"}}}, {"name": "StatefulPartitionedCall/StatefulPartitionedCall/predict/MobilenetV3/expanded_conv_6/expand/BatchNorm/FusedBatchNormV3", "op": "_FusedConv2D", "input": ["StatefulPartitionedCall/StatefulPartitionedCall/predict/MobilenetV3/expanded_conv_5/add", "StatefulPartitionedCall/StatefulPartitionedCall/predict/MobilenetV3/expanded_conv_6/expand/Conv2D_weights", "StatefulPartitionedCall/StatefulPartitionedCall/predict/MobilenetV3/expanded_conv_6/expand/Conv2D_bn_offset"], "device": "/device:CPU:0", "attr": {"data_format": {"s": "TkhXQw=="}, "explicit_paddings": {"list": {}}, "T": {"type": "DT_FLOAT"}, "epsilon": {"f": 0.0}, "fused_ops": {"list": {"s": ["Qmlhc0FkZA=="]}}, "padding": {"s": "U0FNRQ=="}, "use_cudnn_on_gpu": {"b": true}, "strides": {"list": {"i": ["1", "1", "1", "1"]}}, "dilations": {"list": {"i": ["1", "1", "1", "1"]}}, "num_args": {"i": "1"}}}, {"name": "StatefulPartitionedCall/StatefulPartitionedCall/predict/MobilenetV3/expanded_conv_6/expand/hard_swish/mul", "op": "Mul", "input": ["StatefulPartitionedCall/StatefulPartitionedCall/predict/MobilenetV3/expanded_conv_6/expand/hard_swish/mul_1/y", "StatefulPartitionedCall/StatefulPartitionedCall/predict/MobilenetV3/expanded_conv_6/expand/BatchNorm/FusedBatchNormV3"], "attr": {"T": {"type": "DT_FLOAT"}, "_grappler_ArithmeticOptimizer_MinimizeBroadcasts": {"b": true}}}, {"name": "StatefulPartitionedCall/StatefulPartitionedCall/predict/MobilenetV3/expanded_conv_6/expand/hard_swish/add", "op": "AddV2", "input": ["StatefulPartitionedCall/StatefulPartitionedCall/predict/MobilenetV3/expanded_conv_6/expand/BatchNorm/FusedBatchNormV3", "StatefulPartitionedCall/StatefulPartitionedCall/predict/MobilenetV3/expanded_conv_6/expand/hard_swish/add/y"], "attr": {"T": {"type": "DT_FLOAT"}}}, {"name": "StatefulPartitionedCall/StatefulPartitionedCall/predict/MobilenetV3/expanded_conv_6/expand/hard_swish/Relu6", "op": "Relu6", "input": ["StatefulPartitionedCall/StatefulPartitionedCall/predict/MobilenetV3/expanded_conv_6/expand/hard_swish/add"], "attr": {"T": {"type": "DT_FLOAT"}}}, {"name": "StatefulPartitionedCall/StatefulPartitionedCall/predict/MobilenetV3/expanded_conv_6/expand/hard_swish/mul_1", "op": "Mul", "input": ["StatefulPartitionedCall/StatefulPartitionedCall/predict/MobilenetV3/expanded_conv_6/expand/hard_swish/mul", "StatefulPartitionedCall/StatefulPartitionedCall/predict/MobilenetV3/expanded_conv_6/expand/hard_swish/Relu6"], "attr": {"T": {"type": "DT_FLOAT"}, "_grappler_ArithmeticOptimizer_MinimizeBroadcasts": {"b": true}}}, {"name": "StatefulPartitionedCall/StatefulPartitionedCall/predict/MobilenetV3/expanded_conv_6/depthwise/depthwise", "op": "FusedDepthwiseConv2dNative", "input": ["StatefulPartitionedCall/StatefulPartitionedCall/predict/MobilenetV3/expanded_conv_6/expand/hard_swish/mul_1", "StatefulPartitionedCall/StatefulPartitionedCall/predict/MobilenetV3/expanded_conv_6/depthwise/depthwise_weights", "StatefulPartitionedCall/StatefulPartitionedCall/predict/MobilenetV3/expanded_conv_6/depthwise/depthwise_bn_offset"], "attr": {"padding": {"s": "U0FNRQ=="}, "data_format": {"s": "TkhXQw=="}, "strides": {"list": {"i": ["1", "2", "2", "1"]}}, "T": {"type": "DT_FLOAT"}, "num_args": {"i": "1"}, "dilations": {"list": {"i": ["1", "1", "1", "1"]}}, "explicit_paddings": {"list": {}}, "fused_ops": {"list": {"s": ["Qmlhc0FkZA=="]}}}}, {"name": "StatefulPartitionedCall/StatefulPartitionedCall/predict/MobilenetV3/expanded_conv_6/depthwise/hard_swish/mul", "op": "Mul", "input": ["StatefulPartitionedCall/StatefulPartitionedCall/predict/MobilenetV3/expanded_conv_6/depthwise/hard_swish/mul_1/y", "StatefulPartitionedCall/StatefulPartitionedCall/predict/MobilenetV3/expanded_conv_6/depthwise/depthwise"], "attr": {"T": {"type": "DT_FLOAT"}, "_grappler_ArithmeticOptimizer_MinimizeBroadcasts": {"b": true}}}, {"name": "StatefulPartitionedCall/StatefulPartitionedCall/predict/MobilenetV3/expanded_conv_6/depthwise/hard_swish/add", "op": "AddV2", "input": ["StatefulPartitionedCall/StatefulPartitionedCall/predict/MobilenetV3/expanded_conv_6/depthwise/depthwise", "StatefulPartitionedCall/StatefulPartitionedCall/predict/MobilenetV3/expanded_conv_6/depthwise/hard_swish/add/y"], "attr": {"T": {"type": "DT_FLOAT"}}}, {"name": "StatefulPartitionedCall/StatefulPartitionedCall/predict/MobilenetV3/expanded_conv_6/depthwise/hard_swish/Relu6", "op": "Relu6", "input": ["StatefulPartitionedCall/StatefulPartitionedCall/predict/MobilenetV3/expanded_conv_6/depthwise/hard_swish/add"], "attr": {"T": {"type": "DT_FLOAT"}}}, {"name": "StatefulPartitionedCall/StatefulPartitionedCall/predict/MobilenetV3/expanded_conv_6/depthwise/hard_swish/mul_1", "op": "Mul", "input": ["StatefulPartitionedCall/StatefulPartitionedCall/predict/MobilenetV3/expanded_conv_6/depthwise/hard_swish/mul", "StatefulPartitionedCall/StatefulPartitionedCall/predict/MobilenetV3/expanded_conv_6/depthwise/hard_swish/Relu6"], "attr": {"_grappler_ArithmeticOptimizer_MinimizeBroadcasts": {"b": true}, "T": {"type": "DT_FLOAT"}}}, {"name": "StatefulPartitionedCall/StatefulPartitionedCall/predict/MobilenetV3/expanded_conv_6/project/BatchNorm/FusedBatchNormV3", "op": "_FusedConv2D", "input": ["StatefulPartitionedCall/StatefulPartitionedCall/predict/MobilenetV3/expanded_conv_6/depthwise/hard_swish/mul_1", "StatefulPartitionedCall/StatefulPartitionedCall/predict/MobilenetV3/expanded_conv_6/project/Conv2D_weights", "StatefulPartitionedCall/StatefulPartitionedCall/predict/MobilenetV3/expanded_conv_6/project/Conv2D_bn_offset"], "device": "/device:CPU:0", "attr": {"use_cudnn_on_gpu": {"b": true}, "padding": {"s": "U0FNRQ=="}, "dilations": {"list": {"i": ["1", "1", "1", "1"]}}, "strides": {"list": {"i": ["1", "1", "1", "1"]}}, "explicit_paddings": {"list": {}}, "num_args": {"i": "1"}, "T": {"type": "DT_FLOAT"}, "fused_ops": {"list": {"s": ["Qmlhc0FkZA=="]}}, "epsilon": {"f": 0.0}, "data_format": {"s": "TkhXQw=="}}}, {"name": "StatefulPartitionedCall/StatefulPartitionedCall/predict/MobilenetV3/expanded_conv_7/expand/BatchNorm/FusedBatchNormV3", "op": "_FusedConv2D", "input": ["StatefulPartitionedCall/StatefulPartitionedCall/predict/MobilenetV3/expanded_conv_6/project/BatchNorm/FusedBatchNormV3", "StatefulPartitionedCall/StatefulPartitionedCall/predict/MobilenetV3/expanded_conv_7/expand/Conv2D_weights", "StatefulPartitionedCall/StatefulPartitionedCall/predict/MobilenetV3/expanded_conv_7/expand/Conv2D_bn_offset"], "device": "/device:CPU:0", "attr": {"use_cudnn_on_gpu": {"b": true}, "strides": {"list": {"i": ["1", "1", "1", "1"]}}, "epsilon": {"f": 0.0}, "dilations": {"list": {"i": ["1", "1", "1", "1"]}}, "fused_ops": {"list": {"s": ["Qmlhc0FkZA=="]}}, "T": {"type": "DT_FLOAT"}, "explicit_paddings": {"list": {}}, "padding": {"s": "U0FNRQ=="}, "data_format": {"s": "TkhXQw=="}, "num_args": {"i": "1"}}}, {"name": "StatefulPartitionedCall/StatefulPartitionedCall/predict/MobilenetV3/expanded_conv_7/expand/hard_swish/mul", "op": "Mul", "input": ["StatefulPartitionedCall/StatefulPartitionedCall/predict/MobilenetV3/expanded_conv_7/expand/hard_swish/mul_1/y", "StatefulPartitionedCall/StatefulPartitionedCall/predict/MobilenetV3/expanded_conv_7/expand/BatchNorm/FusedBatchNormV3"], "attr": {"_grappler_ArithmeticOptimizer_MinimizeBroadcasts": {"b": true}, "T": {"type": "DT_FLOAT"}}}, {"name": "StatefulPartitionedCall/StatefulPartitionedCall/predict/MobilenetV3/expanded_conv_7/expand/hard_swish/add", "op": "AddV2", "input": ["StatefulPartitionedCall/StatefulPartitionedCall/predict/MobilenetV3/expanded_conv_7/expand/BatchNorm/FusedBatchNormV3", "StatefulPartitionedCall/StatefulPartitionedCall/predict/MobilenetV3/expanded_conv_7/expand/hard_swish/add/y"], "attr": {"T": {"type": "DT_FLOAT"}}}, {"name": "StatefulPartitionedCall/StatefulPartitionedCall/predict/MobilenetV3/expanded_conv_7/expand/hard_swish/Relu6", "op": "Relu6", "input": ["StatefulPartitionedCall/StatefulPartitionedCall/predict/MobilenetV3/expanded_conv_7/expand/hard_swish/add"], "attr": {"T": {"type": "DT_FLOAT"}}}, {"name": "StatefulPartitionedCall/StatefulPartitionedCall/predict/MobilenetV3/expanded_conv_7/expand/hard_swish/mul_1", "op": "Mul", "input": ["StatefulPartitionedCall/StatefulPartitionedCall/predict/MobilenetV3/expanded_conv_7/expand/hard_swish/mul", "StatefulPartitionedCall/StatefulPartitionedCall/predict/MobilenetV3/expanded_conv_7/expand/hard_swish/Relu6"], "attr": {"_grappler_ArithmeticOptimizer_MinimizeBroadcasts": {"b": true}, "T": {"type": "DT_FLOAT"}}}, {"name": "StatefulPartitionedCall/StatefulPartitionedCall/predict/MobilenetV3/expanded_conv_7/depthwise/depthwise", "op": "FusedDepthwiseConv2dNative", "input": ["StatefulPartitionedCall/StatefulPartitionedCall/predict/MobilenetV3/expanded_conv_7/expand/hard_swish/mul_1", "StatefulPartitionedCall/StatefulPartitionedCall/predict/MobilenetV3/expanded_conv_7/depthwise/depthwise_weights", "StatefulPartitionedCall/StatefulPartitionedCall/predict/MobilenetV3/expanded_conv_7/depthwise/depthwise_bn_offset"], "attr": {"fused_ops": {"list": {"s": ["Qmlhc0FkZA=="]}}, "num_args": {"i": "1"}, "explicit_paddings": {"list": {}}, "dilations": {"list": {"i": ["1", "1", "1", "1"]}}, "data_format": {"s": "TkhXQw=="}, "padding": {"s": "U0FNRQ=="}, "T": {"type": "DT_FLOAT"}, "strides": {"list": {"i": ["1", "1", "1", "1"]}}}}, {"name": "StatefulPartitionedCall/StatefulPartitionedCall/predict/MobilenetV3/expanded_conv_7/depthwise/hard_swish/mul", "op": "Mul", "input": ["StatefulPartitionedCall/StatefulPartitionedCall/predict/MobilenetV3/expanded_conv_7/depthwise/hard_swish/mul_1/y", "StatefulPartitionedCall/StatefulPartitionedCall/predict/MobilenetV3/expanded_conv_7/depthwise/depthwise"], "attr": {"T": {"type": "DT_FLOAT"}, "_grappler_ArithmeticOptimizer_MinimizeBroadcasts": {"b": true}}}, {"name": "StatefulPartitionedCall/StatefulPartitionedCall/predict/MobilenetV3/expanded_conv_7/depthwise/hard_swish/add", "op": "AddV2", "input": ["StatefulPartitionedCall/StatefulPartitionedCall/predict/MobilenetV3/expanded_conv_7/depthwise/depthwise", "StatefulPartitionedCall/StatefulPartitionedCall/predict/MobilenetV3/expanded_conv_7/depthwise/hard_swish/add/y"], "attr": {"T": {"type": "DT_FLOAT"}}}, {"name": "StatefulPartitionedCall/StatefulPartitionedCall/predict/MobilenetV3/expanded_conv_7/depthwise/hard_swish/Relu6", "op": "Relu6", "input": ["StatefulPartitionedCall/StatefulPartitionedCall/predict/MobilenetV3/expanded_conv_7/depthwise/hard_swish/add"], "attr": {"T": {"type": "DT_FLOAT"}}}, {"name": "StatefulPartitionedCall/StatefulPartitionedCall/predict/MobilenetV3/expanded_conv_7/depthwise/hard_swish/mul_1", "op": "Mul", "input": ["StatefulPartitionedCall/StatefulPartitionedCall/predict/MobilenetV3/expanded_conv_7/depthwise/hard_swish/mul", "StatefulPartitionedCall/StatefulPartitionedCall/predict/MobilenetV3/expanded_conv_7/depthwise/hard_swish/Relu6"], "attr": {"T": {"type": "DT_FLOAT"}, "_grappler_ArithmeticOptimizer_MinimizeBroadcasts": {"b": true}}}, {"name": "StatefulPartitionedCall/StatefulPartitionedCall/predict/MobilenetV3/expanded_conv_7/project/BatchNorm/FusedBatchNormV3", "op": "_FusedConv2D", "input": ["StatefulPartitionedCall/StatefulPartitionedCall/predict/MobilenetV3/expanded_conv_7/depthwise/hard_swish/mul_1", "StatefulPartitionedCall/StatefulPartitionedCall/predict/MobilenetV3/expanded_conv_7/project/Conv2D_weights", "StatefulPartitionedCall/StatefulPartitionedCall/predict/MobilenetV3/expanded_conv_7/project/Conv2D_bn_offset"], "device": "/device:CPU:0", "attr": {"num_args": {"i": "1"}, "data_format": {"s": "TkhXQw=="}, "padding": {"s": "U0FNRQ=="}, "T": {"type": "DT_FLOAT"}, "use_cudnn_on_gpu": {"b": true}, "strides": {"list": {"i": ["1", "1", "1", "1"]}}, "fused_ops": {"list": {"s": ["Qmlhc0FkZA=="]}}, "dilations": {"list": {"i": ["1", "1", "1", "1"]}}, "explicit_paddings": {"list": {}}, "epsilon": {"f": 0.0}}}, {"name": "StatefulPartitionedCall/StatefulPartitionedCall/predict/MobilenetV3/expanded_conv_7/add", "op": "AddV2", "input": ["StatefulPartitionedCall/StatefulPartitionedCall/predict/MobilenetV3/expanded_conv_7/project/BatchNorm/FusedBatchNormV3", "StatefulPartitionedCall/StatefulPartitionedCall/predict/MobilenetV3/expanded_conv_6/project/BatchNorm/FusedBatchNormV3"], "attr": {"T": {"type": "DT_FLOAT"}}}, {"name": "StatefulPartitionedCall/StatefulPartitionedCall/predict/MobilenetV3/expanded_conv_8/expand/BatchNorm/FusedBatchNormV3", "op": "_FusedConv2D", "input": ["StatefulPartitionedCall/StatefulPartitionedCall/predict/MobilenetV3/expanded_conv_7/add", "StatefulPartitionedCall/StatefulPartitionedCall/predict/MobilenetV3/expanded_conv_8/expand/Conv2D_weights", "StatefulPartitionedCall/StatefulPartitionedCall/predict/MobilenetV3/expanded_conv_8/expand/Conv2D_bn_offset"], "device": "/device:CPU:0", "attr": {"dilations": {"list": {"i": ["1", "1", "1", "1"]}}, "use_cudnn_on_gpu": {"b": true}, "data_format": {"s": "TkhXQw=="}, "fused_ops": {"list": {"s": ["Qmlhc0FkZA=="]}}, "T": {"type": "DT_FLOAT"}, "explicit_paddings": {"list": {}}, "epsilon": {"f": 0.0}, "padding": {"s": "U0FNRQ=="}, "strides": {"list": {"i": ["1", "1", "1", "1"]}}, "num_args": {"i": "1"}}}, {"name": "StatefulPartitionedCall/StatefulPartitionedCall/predict/MobilenetV3/expanded_conv_8/expand/hard_swish/mul", "op": "Mul", "input": ["StatefulPartitionedCall/StatefulPartitionedCall/predict/MobilenetV3/expanded_conv_8/expand/hard_swish/mul_1/y", "StatefulPartitionedCall/StatefulPartitionedCall/predict/MobilenetV3/expanded_conv_8/expand/BatchNorm/FusedBatchNormV3"], "attr": {"_grappler_ArithmeticOptimizer_MinimizeBroadcasts": {"b": true}, "T": {"type": "DT_FLOAT"}}}, {"name": "StatefulPartitionedCall/StatefulPartitionedCall/predict/MobilenetV3/expanded_conv_8/expand/hard_swish/add", "op": "AddV2", "input": ["StatefulPartitionedCall/StatefulPartitionedCall/predict/MobilenetV3/expanded_conv_8/expand/BatchNorm/FusedBatchNormV3", "StatefulPartitionedCall/StatefulPartitionedCall/predict/MobilenetV3/expanded_conv_8/expand/hard_swish/add/y"], "attr": {"T": {"type": "DT_FLOAT"}}}, {"name": "StatefulPartitionedCall/StatefulPartitionedCall/predict/MobilenetV3/expanded_conv_8/expand/hard_swish/Relu6", "op": "Relu6", "input": ["StatefulPartitionedCall/StatefulPartitionedCall/predict/MobilenetV3/expanded_conv_8/expand/hard_swish/add"], "attr": {"T": {"type": "DT_FLOAT"}}}, {"name": "StatefulPartitionedCall/StatefulPartitionedCall/predict/MobilenetV3/expanded_conv_8/expand/hard_swish/mul_1", "op": "Mul", "input": ["StatefulPartitionedCall/StatefulPartitionedCall/predict/MobilenetV3/expanded_conv_8/expand/hard_swish/mul", "StatefulPartitionedCall/StatefulPartitionedCall/predict/MobilenetV3/expanded_conv_8/expand/hard_swish/Relu6"], "attr": {"_grappler_ArithmeticOptimizer_MinimizeBroadcasts": {"b": true}, "T": {"type": "DT_FLOAT"}}}, {"name": "StatefulPartitionedCall/StatefulPartitionedCall/predict/MobilenetV3/expanded_conv_8/depthwise/depthwise", "op": "FusedDepthwiseConv2dNative", "input": ["StatefulPartitionedCall/StatefulPartitionedCall/predict/MobilenetV3/expanded_conv_8/expand/hard_swish/mul_1", "StatefulPartitionedCall/StatefulPartitionedCall/predict/MobilenetV3/expanded_conv_8/depthwise/depthwise_weights", "StatefulPartitionedCall/StatefulPartitionedCall/predict/MobilenetV3/expanded_conv_8/depthwise/depthwise_bn_offset"], "attr": {"num_args": {"i": "1"}, "dilations": {"list": {"i": ["1", "1", "1", "1"]}}, "fused_ops": {"list": {"s": ["Qmlhc0FkZA=="]}}, "strides": {"list": {"i": ["1", "1", "1", "1"]}}, "explicit_paddings": {"list": {}}, "padding": {"s": "U0FNRQ=="}, "data_format": {"s": "TkhXQw=="}, "T": {"type": "DT_FLOAT"}}}, {"name": "StatefulPartitionedCall/StatefulPartitionedCall/predict/MobilenetV3/expanded_conv_8/depthwise/hard_swish/mul", "op": "Mul", "input": ["StatefulPartitionedCall/StatefulPartitionedCall/predict/MobilenetV3/expanded_conv_8/depthwise/hard_swish/mul_1/y", "StatefulPartitionedCall/StatefulPartitionedCall/predict/MobilenetV3/expanded_conv_8/depthwise/depthwise"], "attr": {"_grappler_ArithmeticOptimizer_MinimizeBroadcasts": {"b": true}, "T": {"type": "DT_FLOAT"}}}, {"name": "StatefulPartitionedCall/StatefulPartitionedCall/predict/MobilenetV3/expanded_conv_8/depthwise/hard_swish/add", "op": "AddV2", "input": ["StatefulPartitionedCall/StatefulPartitionedCall/predict/MobilenetV3/expanded_conv_8/depthwise/depthwise", "StatefulPartitionedCall/StatefulPartitionedCall/predict/MobilenetV3/expanded_conv_8/depthwise/hard_swish/add/y"], "attr": {"T": {"type": "DT_FLOAT"}}}, {"name": "StatefulPartitionedCall/StatefulPartitionedCall/predict/MobilenetV3/expanded_conv_8/depthwise/hard_swish/Relu6", "op": "Relu6", "input": ["StatefulPartitionedCall/StatefulPartitionedCall/predict/MobilenetV3/expanded_conv_8/depthwise/hard_swish/add"], "attr": {"T": {"type": "DT_FLOAT"}}}, {"name": "StatefulPartitionedCall/StatefulPartitionedCall/predict/MobilenetV3/expanded_conv_8/depthwise/hard_swish/mul_1", "op": "Mul", "input": ["StatefulPartitionedCall/StatefulPartitionedCall/predict/MobilenetV3/expanded_conv_8/depthwise/hard_swish/mul", "StatefulPartitionedCall/StatefulPartitionedCall/predict/MobilenetV3/expanded_conv_8/depthwise/hard_swish/Relu6"], "attr": {"T": {"type": "DT_FLOAT"}, "_grappler_ArithmeticOptimizer_MinimizeBroadcasts": {"b": true}}}, {"name": "StatefulPartitionedCall/StatefulPartitionedCall/predict/MobilenetV3/expanded_conv_8/project/BatchNorm/FusedBatchNormV3", "op": "_FusedConv2D", "input": ["StatefulPartitionedCall/StatefulPartitionedCall/predict/MobilenetV3/expanded_conv_8/depthwise/hard_swish/mul_1", "StatefulPartitionedCall/StatefulPartitionedCall/predict/MobilenetV3/expanded_conv_8/project/Conv2D_weights", "StatefulPartitionedCall/StatefulPartitionedCall/predict/MobilenetV3/expanded_conv_8/project/Conv2D_bn_offset"], "device": "/device:CPU:0", "attr": {"strides": {"list": {"i": ["1", "1", "1", "1"]}}, "dilations": {"list": {"i": ["1", "1", "1", "1"]}}, "padding": {"s": "U0FNRQ=="}, "epsilon": {"f": 0.0}, "explicit_paddings": {"list": {}}, "data_format": {"s": "TkhXQw=="}, "num_args": {"i": "1"}, "fused_ops": {"list": {"s": ["Qmlhc0FkZA=="]}}, "use_cudnn_on_gpu": {"b": true}, "T": {"type": "DT_FLOAT"}}}, {"name": "StatefulPartitionedCall/StatefulPartitionedCall/predict/MobilenetV3/expanded_conv_8/add", "op": "AddV2", "input": ["StatefulPartitionedCall/StatefulPartitionedCall/predict/MobilenetV3/expanded_conv_8/project/BatchNorm/FusedBatchNormV3", "StatefulPartitionedCall/StatefulPartitionedCall/predict/MobilenetV3/expanded_conv_7/add"], "attr": {"T": {"type": "DT_FLOAT"}}}, {"name": "StatefulPartitionedCall/StatefulPartitionedCall/predict/MobilenetV3/expanded_conv_9/expand/BatchNorm/FusedBatchNormV3", "op": "_FusedConv2D", "input": ["StatefulPartitionedCall/StatefulPartitionedCall/predict/MobilenetV3/expanded_conv_8/add", "StatefulPartitionedCall/StatefulPartitionedCall/predict/MobilenetV3/expanded_conv_9/expand/Conv2D_weights", "StatefulPartitionedCall/StatefulPartitionedCall/predict/MobilenetV3/expanded_conv_9/expand/Conv2D_bn_offset"], "device": "/device:CPU:0", "attr": {"T": {"type": "DT_FLOAT"}, "use_cudnn_on_gpu": {"b": true}, "padding": {"s": "U0FNRQ=="}, "data_format": {"s": "TkhXQw=="}, "dilations": {"list": {"i": ["1", "1", "1", "1"]}}, "epsilon": {"f": 0.0}, "num_args": {"i": "1"}, "strides": {"list": {"i": ["1", "1", "1", "1"]}}, "fused_ops": {"list": {"s": ["Qmlhc0FkZA=="]}}, "explicit_paddings": {"list": {}}}}, {"name": "StatefulPartitionedCall/StatefulPartitionedCall/predict/MobilenetV3/expanded_conv_9/expand/hard_swish/mul", "op": "Mul", "input": ["StatefulPartitionedCall/StatefulPartitionedCall/predict/MobilenetV3/expanded_conv_9/expand/hard_swish/mul_1/y", "StatefulPartitionedCall/StatefulPartitionedCall/predict/MobilenetV3/expanded_conv_9/expand/BatchNorm/FusedBatchNormV3"], "attr": {"_grappler_ArithmeticOptimizer_MinimizeBroadcasts": {"b": true}, "T": {"type": "DT_FLOAT"}}}, {"name": "StatefulPartitionedCall/StatefulPartitionedCall/predict/MobilenetV3/expanded_conv_9/expand/hard_swish/add", "op": "AddV2", "input": ["StatefulPartitionedCall/StatefulPartitionedCall/predict/MobilenetV3/expanded_conv_9/expand/BatchNorm/FusedBatchNormV3", "StatefulPartitionedCall/StatefulPartitionedCall/predict/MobilenetV3/expanded_conv_9/expand/hard_swish/add/y"], "attr": {"T": {"type": "DT_FLOAT"}}}, {"name": "StatefulPartitionedCall/StatefulPartitionedCall/predict/MobilenetV3/expanded_conv_9/expand/hard_swish/Relu6", "op": "Relu6", "input": ["StatefulPartitionedCall/StatefulPartitionedCall/predict/MobilenetV3/expanded_conv_9/expand/hard_swish/add"], "attr": {"T": {"type": "DT_FLOAT"}}}, {"name": "StatefulPartitionedCall/StatefulPartitionedCall/predict/MobilenetV3/expanded_conv_9/expand/hard_swish/mul_1", "op": "Mul", "input": ["StatefulPartitionedCall/StatefulPartitionedCall/predict/MobilenetV3/expanded_conv_9/expand/hard_swish/mul", "StatefulPartitionedCall/StatefulPartitionedCall/predict/MobilenetV3/expanded_conv_9/expand/hard_swish/Relu6"], "attr": {"_grappler_ArithmeticOptimizer_MinimizeBroadcasts": {"b": true}, "T": {"type": "DT_FLOAT"}}}, {"name": "StatefulPartitionedCall/StatefulPartitionedCall/predict/MobilenetV3/expanded_conv_9/depthwise/depthwise", "op": "FusedDepthwiseConv2dNative", "input": ["StatefulPartitionedCall/StatefulPartitionedCall/predict/MobilenetV3/expanded_conv_9/expand/hard_swish/mul_1", "StatefulPartitionedCall/StatefulPartitionedCall/predict/MobilenetV3/expanded_conv_9/depthwise/depthwise_weights", "StatefulPartitionedCall/StatefulPartitionedCall/predict/MobilenetV3/expanded_conv_9/depthwise/depthwise_bn_offset"], "attr": {"padding": {"s": "U0FNRQ=="}, "fused_ops": {"list": {"s": ["Qmlhc0FkZA=="]}}, "T": {"type": "DT_FLOAT"}, "explicit_paddings": {"list": {}}, "strides": {"list": {"i": ["1", "1", "1", "1"]}}, "num_args": {"i": "1"}, "dilations": {"list": {"i": ["1", "1", "1", "1"]}}, "data_format": {"s": "TkhXQw=="}}}, {"name": "StatefulPartitionedCall/StatefulPartitionedCall/predict/MobilenetV3/expanded_conv_9/depthwise/hard_swish/mul", "op": "Mul", "input": ["StatefulPartitionedCall/StatefulPartitionedCall/predict/MobilenetV3/expanded_conv_9/depthwise/hard_swish/mul_1/y", "StatefulPartitionedCall/StatefulPartitionedCall/predict/MobilenetV3/expanded_conv_9/depthwise/depthwise"], "attr": {"T": {"type": "DT_FLOAT"}, "_grappler_ArithmeticOptimizer_MinimizeBroadcasts": {"b": true}}}, {"name": "StatefulPartitionedCall/StatefulPartitionedCall/predict/MobilenetV3/expanded_conv_9/depthwise/hard_swish/add", "op": "AddV2", "input": ["StatefulPartitionedCall/StatefulPartitionedCall/predict/MobilenetV3/expanded_conv_9/depthwise/depthwise", "StatefulPartitionedCall/StatefulPartitionedCall/predict/MobilenetV3/expanded_conv_9/depthwise/hard_swish/add/y"], "attr": {"T": {"type": "DT_FLOAT"}}}, {"name": "StatefulPartitionedCall/StatefulPartitionedCall/predict/MobilenetV3/expanded_conv_9/depthwise/hard_swish/Relu6", "op": "Relu6", "input": ["StatefulPartitionedCall/StatefulPartitionedCall/predict/MobilenetV3/expanded_conv_9/depthwise/hard_swish/add"], "attr": {"T": {"type": "DT_FLOAT"}}}, {"name": "StatefulPartitionedCall/StatefulPartitionedCall/predict/MobilenetV3/expanded_conv_9/depthwise/hard_swish/mul_1", "op": "Mul", "input": ["StatefulPartitionedCall/StatefulPartitionedCall/predict/MobilenetV3/expanded_conv_9/depthwise/hard_swish/mul", "StatefulPartitionedCall/StatefulPartitionedCall/predict/MobilenetV3/expanded_conv_9/depthwise/hard_swish/Relu6"], "attr": {"_grappler_ArithmeticOptimizer_MinimizeBroadcasts": {"b": true}, "T": {"type": "DT_FLOAT"}}}, {"name": "StatefulPartitionedCall/StatefulPartitionedCall/predict/MobilenetV3/expanded_conv_9/project/BatchNorm/FusedBatchNormV3", "op": "_FusedConv2D", "input": ["StatefulPartitionedCall/StatefulPartitionedCall/predict/MobilenetV3/expanded_conv_9/depthwise/hard_swish/mul_1", "StatefulPartitionedCall/StatefulPartitionedCall/predict/MobilenetV3/expanded_conv_9/project/Conv2D_weights", "StatefulPartitionedCall/StatefulPartitionedCall/predict/MobilenetV3/expanded_conv_9/project/Conv2D_bn_offset"], "device": "/device:CPU:0", "attr": {"epsilon": {"f": 0.0}, "padding": {"s": "U0FNRQ=="}, "data_format": {"s": "TkhXQw=="}, "strides": {"list": {"i": ["1", "1", "1", "1"]}}, "use_cudnn_on_gpu": {"b": true}, "explicit_paddings": {"list": {}}, "num_args": {"i": "1"}, "dilations": {"list": {"i": ["1", "1", "1", "1"]}}, "T": {"type": "DT_FLOAT"}, "fused_ops": {"list": {"s": ["Qmlhc0FkZA=="]}}}}, {"name": "StatefulPartitionedCall/StatefulPartitionedCall/predict/MobilenetV3/expanded_conv_9/add", "op": "AddV2", "input": ["StatefulPartitionedCall/StatefulPartitionedCall/predict/MobilenetV3/expanded_conv_9/project/BatchNorm/FusedBatchNormV3", "StatefulPartitionedCall/StatefulPartitionedCall/predict/MobilenetV3/expanded_conv_8/add"], "attr": {"T": {"type": "DT_FLOAT"}}}, {"name": "StatefulPartitionedCall/StatefulPartitionedCall/predict/MobilenetV3/expanded_conv_10/expand/BatchNorm/FusedBatchNormV3", "op": "_FusedConv2D", "input": ["StatefulPartitionedCall/StatefulPartitionedCall/predict/MobilenetV3/expanded_conv_9/add", "StatefulPartitionedCall/StatefulPartitionedCall/predict/MobilenetV3/expanded_conv_10/expand/Conv2D_weights", "StatefulPartitionedCall/StatefulPartitionedCall/predict/MobilenetV3/expanded_conv_10/expand/Conv2D_bn_offset"], "device": "/device:CPU:0", "attr": {"epsilon": {"f": 0.0}, "data_format": {"s": "TkhXQw=="}, "explicit_paddings": {"list": {}}, "dilations": {"list": {"i": ["1", "1", "1", "1"]}}, "strides": {"list": {"i": ["1", "1", "1", "1"]}}, "num_args": {"i": "1"}, "use_cudnn_on_gpu": {"b": true}, "T": {"type": "DT_FLOAT"}, "padding": {"s": "U0FNRQ=="}, "fused_ops": {"list": {"s": ["Qmlhc0FkZA=="]}}}}, {"name": "StatefulPartitionedCall/StatefulPartitionedCall/predict/MobilenetV3/expanded_conv_10/expand/hard_swish/mul", "op": "Mul", "input": ["StatefulPartitionedCall/StatefulPartitionedCall/predict/MobilenetV3/expanded_conv_10/expand/hard_swish/mul_1/y", "StatefulPartitionedCall/StatefulPartitionedCall/predict/MobilenetV3/expanded_conv_10/expand/BatchNorm/FusedBatchNormV3"], "attr": {"T": {"type": "DT_FLOAT"}, "_grappler_ArithmeticOptimizer_MinimizeBroadcasts": {"b": true}}}, {"name": "StatefulPartitionedCall/StatefulPartitionedCall/predict/MobilenetV3/expanded_conv_10/expand/hard_swish/add", "op": "AddV2", "input": ["StatefulPartitionedCall/StatefulPartitionedCall/predict/MobilenetV3/expanded_conv_10/expand/BatchNorm/FusedBatchNormV3", "StatefulPartitionedCall/StatefulPartitionedCall/predict/MobilenetV3/expanded_conv_10/expand/hard_swish/add/y"], "attr": {"T": {"type": "DT_FLOAT"}}}, {"name": "StatefulPartitionedCall/StatefulPartitionedCall/predict/MobilenetV3/expanded_conv_10/expand/hard_swish/Relu6", "op": "Relu6", "input": ["StatefulPartitionedCall/StatefulPartitionedCall/predict/MobilenetV3/expanded_conv_10/expand/hard_swish/add"], "attr": {"T": {"type": "DT_FLOAT"}}}, {"name": "StatefulPartitionedCall/StatefulPartitionedCall/predict/MobilenetV3/expanded_conv_10/expand/hard_swish/mul_1", "op": "Mul", "input": ["StatefulPartitionedCall/StatefulPartitionedCall/predict/MobilenetV3/expanded_conv_10/expand/hard_swish/mul", "StatefulPartitionedCall/StatefulPartitionedCall/predict/MobilenetV3/expanded_conv_10/expand/hard_swish/Relu6"], "attr": {"T": {"type": "DT_FLOAT"}, "_grappler_ArithmeticOptimizer_MinimizeBroadcasts": {"b": true}}}, {"name": "StatefulPartitionedCall/StatefulPartitionedCall/predict/MobilenetV3/expanded_conv_10/depthwise/depthwise", "op": "FusedDepthwiseConv2dNative", "input": ["StatefulPartitionedCall/StatefulPartitionedCall/predict/MobilenetV3/expanded_conv_10/expand/hard_swish/mul_1", "StatefulPartitionedCall/StatefulPartitionedCall/predict/MobilenetV3/expanded_conv_10/depthwise/depthwise_weights", "StatefulPartitionedCall/StatefulPartitionedCall/predict/MobilenetV3/expanded_conv_10/depthwise/depthwise_bn_offset"], "attr": {"data_format": {"s": "TkhXQw=="}, "dilations": {"list": {"i": ["1", "1", "1", "1"]}}, "strides": {"list": {"i": ["1", "1", "1", "1"]}}, "padding": {"s": "U0FNRQ=="}, "num_args": {"i": "1"}, "T": {"type": "DT_FLOAT"}, "explicit_paddings": {"list": {}}, "fused_ops": {"list": {"s": ["Qmlhc0FkZA=="]}}}}, {"name": "StatefulPartitionedCall/StatefulPartitionedCall/predict/MobilenetV3/expanded_conv_10/depthwise/hard_swish/mul", "op": "Mul", "input": ["StatefulPartitionedCall/StatefulPartitionedCall/predict/MobilenetV3/expanded_conv_10/depthwise/hard_swish/mul_1/y", "StatefulPartitionedCall/StatefulPartitionedCall/predict/MobilenetV3/expanded_conv_10/depthwise/depthwise"], "attr": {"_grappler_ArithmeticOptimizer_MinimizeBroadcasts": {"b": true}, "T": {"type": "DT_FLOAT"}}}, {"name": "StatefulPartitionedCall/StatefulPartitionedCall/predict/MobilenetV3/expanded_conv_10/depthwise/hard_swish/add", "op": "AddV2", "input": ["StatefulPartitionedCall/StatefulPartitionedCall/predict/MobilenetV3/expanded_conv_10/depthwise/depthwise", "StatefulPartitionedCall/StatefulPartitionedCall/predict/MobilenetV3/expanded_conv_10/depthwise/hard_swish/add/y"], "attr": {"T": {"type": "DT_FLOAT"}}}, {"name": "StatefulPartitionedCall/StatefulPartitionedCall/predict/MobilenetV3/expanded_conv_10/depthwise/hard_swish/Relu6", "op": "Relu6", "input": ["StatefulPartitionedCall/StatefulPartitionedCall/predict/MobilenetV3/expanded_conv_10/depthwise/hard_swish/add"], "attr": {"T": {"type": "DT_FLOAT"}}}, {"name": "StatefulPartitionedCall/StatefulPartitionedCall/predict/MobilenetV3/expanded_conv_10/depthwise/hard_swish/mul_1", "op": "Mul", "input": ["StatefulPartitionedCall/StatefulPartitionedCall/predict/MobilenetV3/expanded_conv_10/depthwise/hard_swish/mul", "StatefulPartitionedCall/StatefulPartitionedCall/predict/MobilenetV3/expanded_conv_10/depthwise/hard_swish/Relu6"], "attr": {"_grappler_ArithmeticOptimizer_MinimizeBroadcasts": {"b": true}, "T": {"type": "DT_FLOAT"}}}, {"name": "StatefulPartitionedCall/StatefulPartitionedCall/predict/MobilenetV3/expanded_conv_10/squeeze_excite/Mean", "op": "Mean", "input": ["StatefulPartitionedCall/StatefulPartitionedCall/predict/MobilenetV3/expanded_conv_10/depthwise/hard_swish/mul_1", "StatefulPartitionedCall/StatefulPartitionedCall/predict/MobilenetV3/expanded_conv_10/squeeze_excite/Mean/reduction_indices"], "attr": {"T": {"type": "DT_FLOAT"}, "Tidx": {"type": "DT_INT32"}, "keep_dims": {"b": true}}}, {"name": "StatefulPartitionedCall/StatefulPartitionedCall/predict/MobilenetV3/expanded_conv_10/squeeze_excite/Conv/Relu", "op": "_FusedConv2D", "input": ["StatefulPartitionedCall/StatefulPartitionedCall/predict/MobilenetV3/expanded_conv_10/squeeze_excite/Mean", "Func/StatefulPartitionedCall/StatefulPartitionedCall/input/_442", "Func/StatefulPartitionedCall/StatefulPartitionedCall/input/_443"], "device": "/device:CPU:0", "attr": {"data_format": {"s": "TkhXQw=="}, "T": {"type": "DT_FLOAT"}, "dilations": {"list": {"i": ["1", "1", "1", "1"]}}, "use_cudnn_on_gpu": {"b": true}, "num_args": {"i": "1"}, "explicit_paddings": {"list": {}}, "fused_ops": {"list": {"s": ["Qmlhc0FkZA==", "UmVsdQ=="]}}, "epsilon": {"f": 0.0}, "strides": {"list": {"i": ["1", "1", "1", "1"]}}, "padding": {"s": "U0FNRQ=="}}}, {"name": "StatefulPartitionedCall/StatefulPartitionedCall/predict/MobilenetV3/expanded_conv_10/squeeze_excite/Conv_1/BiasAdd", "op": "_FusedConv2D", "input": ["StatefulPartitionedCall/StatefulPartitionedCall/predict/MobilenetV3/expanded_conv_10/squeeze_excite/Conv/Relu", "Func/StatefulPartitionedCall/StatefulPartitionedCall/input/_444", "Func/StatefulPartitionedCall/StatefulPartitionedCall/input/_445"], "device": "/device:CPU:0", "attr": {"fused_ops": {"list": {"s": ["Qmlhc0FkZA=="]}}, "T": {"type": "DT_FLOAT"}, "epsilon": {"f": 0.0}, "padding": {"s": "U0FNRQ=="}, "data_format": {"s": "TkhXQw=="}, "num_args": {"i": "1"}, "use_cudnn_on_gpu": {"b": true}, "explicit_paddings": {"list": {}}, "strides": {"list": {"i": ["1", "1", "1", "1"]}}, "dilations": {"list": {"i": ["1", "1", "1", "1"]}}}}, {"name": "StatefulPartitionedCall/StatefulPartitionedCall/predict/MobilenetV3/expanded_conv_10/squeeze_excite/Conv_1/add", "op": "AddV2", "input": ["StatefulPartitionedCall/StatefulPartitionedCall/predict/MobilenetV3/expanded_conv_10/squeeze_excite/Conv_1/BiasAdd", "StatefulPartitionedCall/StatefulPartitionedCall/predict/MobilenetV3/expanded_conv_10/squeeze_excite/Conv_1/add/y"], "attr": {"T": {"type": "DT_FLOAT"}}}, {"name": "StatefulPartitionedCall/StatefulPartitionedCall/predict/MobilenetV3/expanded_conv_10/squeeze_excite/Conv_1/Relu6", "op": "Relu6", "input": ["StatefulPartitionedCall/StatefulPartitionedCall/predict/MobilenetV3/expanded_conv_10/squeeze_excite/Conv_1/add"], "attr": {"T": {"type": "DT_FLOAT"}}}, {"name": "StatefulPartitionedCall/StatefulPartitionedCall/predict/MobilenetV3/expanded_conv_10/squeeze_excite/Conv_1/mul", "op": "Mul", "input": ["StatefulPartitionedCall/StatefulPartitionedCall/predict/MobilenetV3/expanded_conv_10/squeeze_excite/Conv_1/mul/y", "StatefulPartitionedCall/StatefulPartitionedCall/predict/MobilenetV3/expanded_conv_10/squeeze_excite/Conv_1/Relu6"], "attr": {"T": {"type": "DT_FLOAT"}, "_grappler_ArithmeticOptimizer_MinimizeBroadcasts": {"b": true}}}, {"name": "StatefulPartitionedCall/StatefulPartitionedCall/predict/MobilenetV3/expanded_conv_10/squeeze_excite/mul", "op": "Mul", "input": ["StatefulPartitionedCall/StatefulPartitionedCall/predict/MobilenetV3/expanded_conv_10/squeeze_excite/Conv_1/mul", "StatefulPartitionedCall/StatefulPartitionedCall/predict/MobilenetV3/expanded_conv_10/depthwise/hard_swish/mul_1"], "attr": {"T": {"type": "DT_FLOAT"}, "_grappler_ArithmeticOptimizer_MinimizeBroadcasts": {"b": true}}}, {"name": "StatefulPartitionedCall/StatefulPartitionedCall/predict/MobilenetV3/expanded_conv_10/project/BatchNorm/FusedBatchNormV3", "op": "_FusedConv2D", "input": ["StatefulPartitionedCall/StatefulPartitionedCall/predict/MobilenetV3/expanded_conv_10/squeeze_excite/mul", "StatefulPartitionedCall/StatefulPartitionedCall/predict/MobilenetV3/expanded_conv_10/project/Conv2D_weights", "StatefulPartitionedCall/StatefulPartitionedCall/predict/MobilenetV3/expanded_conv_10/project/Conv2D_bn_offset"], "device": "/device:CPU:0", "attr": {"epsilon": {"f": 0.0}, "explicit_paddings": {"list": {}}, "data_format": {"s": "TkhXQw=="}, "strides": {"list": {"i": ["1", "1", "1", "1"]}}, "dilations": {"list": {"i": ["1", "1", "1", "1"]}}, "padding": {"s": "U0FNRQ=="}, "use_cudnn_on_gpu": {"b": true}, "num_args": {"i": "1"}, "fused_ops": {"list": {"s": ["Qmlhc0FkZA=="]}}, "T": {"type": "DT_FLOAT"}}}, {"name": "StatefulPartitionedCall/StatefulPartitionedCall/predict/MobilenetV3/expanded_conv_11/expand/BatchNorm/FusedBatchNormV3", "op": "_FusedConv2D", "input": ["StatefulPartitionedCall/StatefulPartitionedCall/predict/MobilenetV3/expanded_conv_10/project/BatchNorm/FusedBatchNormV3", "StatefulPartitionedCall/StatefulPartitionedCall/predict/MobilenetV3/expanded_conv_11/expand/Conv2D_weights", "StatefulPartitionedCall/StatefulPartitionedCall/predict/MobilenetV3/expanded_conv_11/expand/Conv2D_bn_offset"], "device": "/device:CPU:0", "attr": {"padding": {"s": "U0FNRQ=="}, "use_cudnn_on_gpu": {"b": true}, "fused_ops": {"list": {"s": ["Qmlhc0FkZA=="]}}, "strides": {"list": {"i": ["1", "1", "1", "1"]}}, "explicit_paddings": {"list": {}}, "num_args": {"i": "1"}, "dilations": {"list": {"i": ["1", "1", "1", "1"]}}, "data_format": {"s": "TkhXQw=="}, "epsilon": {"f": 0.0}, "T": {"type": "DT_FLOAT"}}}, {"name": "StatefulPartitionedCall/StatefulPartitionedCall/predict/MobilenetV3/expanded_conv_11/expand/hard_swish/mul", "op": "Mul", "input": ["StatefulPartitionedCall/StatefulPartitionedCall/predict/MobilenetV3/expanded_conv_11/expand/hard_swish/mul_1/y", "StatefulPartitionedCall/StatefulPartitionedCall/predict/MobilenetV3/expanded_conv_11/expand/BatchNorm/FusedBatchNormV3"], "attr": {"_grappler_ArithmeticOptimizer_MinimizeBroadcasts": {"b": true}, "T": {"type": "DT_FLOAT"}}}, {"name": "StatefulPartitionedCall/StatefulPartitionedCall/predict/MobilenetV3/expanded_conv_11/expand/hard_swish/add", "op": "AddV2", "input": ["StatefulPartitionedCall/StatefulPartitionedCall/predict/MobilenetV3/expanded_conv_11/expand/BatchNorm/FusedBatchNormV3", "StatefulPartitionedCall/StatefulPartitionedCall/predict/MobilenetV3/expanded_conv_11/expand/hard_swish/add/y"], "attr": {"T": {"type": "DT_FLOAT"}}}, {"name": "StatefulPartitionedCall/StatefulPartitionedCall/predict/MobilenetV3/expanded_conv_11/expand/hard_swish/Relu6", "op": "Relu6", "input": ["StatefulPartitionedCall/StatefulPartitionedCall/predict/MobilenetV3/expanded_conv_11/expand/hard_swish/add"], "attr": {"T": {"type": "DT_FLOAT"}}}, {"name": "StatefulPartitionedCall/StatefulPartitionedCall/predict/MobilenetV3/expanded_conv_11/expand/hard_swish/mul_1", "op": "Mul", "input": ["StatefulPartitionedCall/StatefulPartitionedCall/predict/MobilenetV3/expanded_conv_11/expand/hard_swish/mul", "StatefulPartitionedCall/StatefulPartitionedCall/predict/MobilenetV3/expanded_conv_11/expand/hard_swish/Relu6"], "attr": {"T": {"type": "DT_FLOAT"}, "_grappler_ArithmeticOptimizer_MinimizeBroadcasts": {"b": true}}}, {"name": "StatefulPartitionedCall/StatefulPartitionedCall/predict/MobilenetV3/expanded_conv_11/depthwise/depthwise", "op": "FusedDepthwiseConv2dNative", "input": ["StatefulPartitionedCall/StatefulPartitionedCall/predict/MobilenetV3/expanded_conv_11/expand/hard_swish/mul_1", "StatefulPartitionedCall/StatefulPartitionedCall/predict/MobilenetV3/expanded_conv_11/depthwise/depthwise_weights", "StatefulPartitionedCall/StatefulPartitionedCall/predict/MobilenetV3/expanded_conv_11/depthwise/depthwise_bn_offset"], "attr": {"strides": {"list": {"i": ["1", "1", "1", "1"]}}, "num_args": {"i": "1"}, "T": {"type": "DT_FLOAT"}, "data_format": {"s": "TkhXQw=="}, "explicit_paddings": {"list": {}}, "padding": {"s": "U0FNRQ=="}, "dilations": {"list": {"i": ["1", "1", "1", "1"]}}, "fused_ops": {"list": {"s": ["Qmlhc0FkZA=="]}}}}, {"name": "StatefulPartitionedCall/StatefulPartitionedCall/predict/MobilenetV3/expanded_conv_11/depthwise/hard_swish/mul", "op": "Mul", "input": ["StatefulPartitionedCall/StatefulPartitionedCall/predict/MobilenetV3/expanded_conv_11/depthwise/hard_swish/mul_1/y", "StatefulPartitionedCall/StatefulPartitionedCall/predict/MobilenetV3/expanded_conv_11/depthwise/depthwise"], "attr": {"_grappler_ArithmeticOptimizer_MinimizeBroadcasts": {"b": true}, "T": {"type": "DT_FLOAT"}}}, {"name": "StatefulPartitionedCall/StatefulPartitionedCall/predict/MobilenetV3/expanded_conv_11/depthwise/hard_swish/add", "op": "AddV2", "input": ["StatefulPartitionedCall/StatefulPartitionedCall/predict/MobilenetV3/expanded_conv_11/depthwise/depthwise", "StatefulPartitionedCall/StatefulPartitionedCall/predict/MobilenetV3/expanded_conv_11/depthwise/hard_swish/add/y"], "attr": {"T": {"type": "DT_FLOAT"}}}, {"name": "StatefulPartitionedCall/StatefulPartitionedCall/predict/MobilenetV3/expanded_conv_11/depthwise/hard_swish/Relu6", "op": "Relu6", "input": ["StatefulPartitionedCall/StatefulPartitionedCall/predict/MobilenetV3/expanded_conv_11/depthwise/hard_swish/add"], "attr": {"T": {"type": "DT_FLOAT"}}}, {"name": "StatefulPartitionedCall/StatefulPartitionedCall/predict/MobilenetV3/expanded_conv_11/depthwise/hard_swish/mul_1", "op": "Mul", "input": ["StatefulPartitionedCall/StatefulPartitionedCall/predict/MobilenetV3/expanded_conv_11/depthwise/hard_swish/mul", "StatefulPartitionedCall/StatefulPartitionedCall/predict/MobilenetV3/expanded_conv_11/depthwise/hard_swish/Relu6"], "attr": {"_grappler_ArithmeticOptimizer_MinimizeBroadcasts": {"b": true}, "T": {"type": "DT_FLOAT"}}}, {"name": "StatefulPartitionedCall/StatefulPartitionedCall/predict/MobilenetV3/expanded_conv_11/squeeze_excite/Mean", "op": "Mean", "input": ["StatefulPartitionedCall/StatefulPartitionedCall/predict/MobilenetV3/expanded_conv_11/depthwise/hard_swish/mul_1", "StatefulPartitionedCall/StatefulPartitionedCall/predict/MobilenetV3/expanded_conv_11/squeeze_excite/Mean/reduction_indices"], "attr": {"T": {"type": "DT_FLOAT"}, "Tidx": {"type": "DT_INT32"}, "keep_dims": {"b": true}}}, {"name": "StatefulPartitionedCall/StatefulPartitionedCall/predict/MobilenetV3/expanded_conv_11/squeeze_excite/Conv/Relu", "op": "_FusedConv2D", "input": ["StatefulPartitionedCall/StatefulPartitionedCall/predict/MobilenetV3/expanded_conv_11/squeeze_excite/Mean", "Func/StatefulPartitionedCall/StatefulPartitionedCall/input/_461", "Func/StatefulPartitionedCall/StatefulPartitionedCall/input/_462"], "device": "/device:CPU:0", "attr": {"fused_ops": {"list": {"s": ["Qmlhc0FkZA==", "UmVsdQ=="]}}, "strides": {"list": {"i": ["1", "1", "1", "1"]}}, "explicit_paddings": {"list": {}}, "T": {"type": "DT_FLOAT"}, "epsilon": {"f": 0.0}, "data_format": {"s": "TkhXQw=="}, "use_cudnn_on_gpu": {"b": true}, "dilations": {"list": {"i": ["1", "1", "1", "1"]}}, "num_args": {"i": "1"}, "padding": {"s": "U0FNRQ=="}}}, {"name": "StatefulPartitionedCall/StatefulPartitionedCall/predict/MobilenetV3/expanded_conv_11/squeeze_excite/Conv_1/BiasAdd", "op": "_FusedConv2D", "input": ["StatefulPartitionedCall/StatefulPartitionedCall/predict/MobilenetV3/expanded_conv_11/squeeze_excite/Conv/Relu", "Func/StatefulPartitionedCall/StatefulPartitionedCall/input/_463", "Func/StatefulPartitionedCall/StatefulPartitionedCall/input/_464"], "device": "/device:CPU:0", "attr": {"use_cudnn_on_gpu": {"b": true}, "num_args": {"i": "1"}, "padding": {"s": "U0FNRQ=="}, "dilations": {"list": {"i": ["1", "1", "1", "1"]}}, "T": {"type": "DT_FLOAT"}, "fused_ops": {"list": {"s": ["Qmlhc0FkZA=="]}}, "epsilon": {"f": 0.0}, "explicit_paddings": {"list": {}}, "strides": {"list": {"i": ["1", "1", "1", "1"]}}, "data_format": {"s": "TkhXQw=="}}}, {"name": "StatefulPartitionedCall/StatefulPartitionedCall/predict/MobilenetV3/expanded_conv_11/squeeze_excite/Conv_1/add", "op": "AddV2", "input": ["StatefulPartitionedCall/StatefulPartitionedCall/predict/MobilenetV3/expanded_conv_11/squeeze_excite/Conv_1/BiasAdd", "StatefulPartitionedCall/StatefulPartitionedCall/predict/MobilenetV3/expanded_conv_11/squeeze_excite/Conv_1/add/y"], "attr": {"T": {"type": "DT_FLOAT"}}}, {"name": "StatefulPartitionedCall/StatefulPartitionedCall/predict/MobilenetV3/expanded_conv_11/squeeze_excite/Conv_1/Relu6", "op": "Relu6", "input": ["StatefulPartitionedCall/StatefulPartitionedCall/predict/MobilenetV3/expanded_conv_11/squeeze_excite/Conv_1/add"], "attr": {"T": {"type": "DT_FLOAT"}}}, {"name": "StatefulPartitionedCall/StatefulPartitionedCall/predict/MobilenetV3/expanded_conv_11/squeeze_excite/Conv_1/mul", "op": "Mul", "input": ["StatefulPartitionedCall/StatefulPartitionedCall/predict/MobilenetV3/expanded_conv_11/squeeze_excite/Conv_1/mul/y", "StatefulPartitionedCall/StatefulPartitionedCall/predict/MobilenetV3/expanded_conv_11/squeeze_excite/Conv_1/Relu6"], "attr": {"_grappler_ArithmeticOptimizer_MinimizeBroadcasts": {"b": true}, "T": {"type": "DT_FLOAT"}}}, {"name": "StatefulPartitionedCall/StatefulPartitionedCall/predict/MobilenetV3/expanded_conv_11/squeeze_excite/mul", "op": "Mul", "input": ["StatefulPartitionedCall/StatefulPartitionedCall/predict/MobilenetV3/expanded_conv_11/squeeze_excite/Conv_1/mul", "StatefulPartitionedCall/StatefulPartitionedCall/predict/MobilenetV3/expanded_conv_11/depthwise/hard_swish/mul_1"], "attr": {"T": {"type": "DT_FLOAT"}, "_grappler_ArithmeticOptimizer_MinimizeBroadcasts": {"b": true}}}, {"name": "StatefulPartitionedCall/StatefulPartitionedCall/predict/MobilenetV3/expanded_conv_11/project/BatchNorm/FusedBatchNormV3", "op": "_FusedConv2D", "input": ["StatefulPartitionedCall/StatefulPartitionedCall/predict/MobilenetV3/expanded_conv_11/squeeze_excite/mul", "StatefulPartitionedCall/StatefulPartitionedCall/predict/MobilenetV3/expanded_conv_11/project/Conv2D_weights", "StatefulPartitionedCall/StatefulPartitionedCall/predict/MobilenetV3/expanded_conv_11/project/Conv2D_bn_offset"], "device": "/device:CPU:0", "attr": {"fused_ops": {"list": {"s": ["Qmlhc0FkZA=="]}}, "data_format": {"s": "TkhXQw=="}, "use_cudnn_on_gpu": {"b": true}, "num_args": {"i": "1"}, "epsilon": {"f": 0.0}, "explicit_paddings": {"list": {}}, "padding": {"s": "U0FNRQ=="}, "dilations": {"list": {"i": ["1", "1", "1", "1"]}}, "T": {"type": "DT_FLOAT"}, "strides": {"list": {"i": ["1", "1", "1", "1"]}}}}, {"name": "StatefulPartitionedCall/StatefulPartitionedCall/predict/MobilenetV3/expanded_conv_11/add", "op": "AddV2", "input": ["StatefulPartitionedCall/StatefulPartitionedCall/predict/MobilenetV3/expanded_conv_11/project/BatchNorm/FusedBatchNormV3", "StatefulPartitionedCall/StatefulPartitionedCall/predict/MobilenetV3/expanded_conv_10/project/BatchNorm/FusedBatchNormV3"], "attr": {"T": {"type": "DT_FLOAT"}}}, {"name": "StatefulPartitionedCall/StatefulPartitionedCall/predict/MobilenetV3/expanded_conv_12/expand/BatchNorm/FusedBatchNormV3", "op": "_FusedConv2D", "input": ["StatefulPartitionedCall/StatefulPartitionedCall/predict/MobilenetV3/expanded_conv_11/add", "StatefulPartitionedCall/StatefulPartitionedCall/predict/MobilenetV3/expanded_conv_12/expand/Conv2D_weights", "StatefulPartitionedCall/StatefulPartitionedCall/predict/MobilenetV3/expanded_conv_12/expand/Conv2D_bn_offset"], "device": "/device:CPU:0", "attr": {"fused_ops": {"list": {"s": ["Qmlhc0FkZA=="]}}, "padding": {"s": "U0FNRQ=="}, "dilations": {"list": {"i": ["1", "1", "1", "1"]}}, "data_format": {"s": "TkhXQw=="}, "T": {"type": "DT_FLOAT"}, "explicit_paddings": {"list": {}}, "epsilon": {"f": 0.0}, "use_cudnn_on_gpu": {"b": true}, "num_args": {"i": "1"}, "strides": {"list": {"i": ["1", "1", "1", "1"]}}}}, {"name": "StatefulPartitionedCall/StatefulPartitionedCall/predict/MobilenetV3/expanded_conv_12/expand/hard_swish/mul", "op": "Mul", "input": ["StatefulPartitionedCall/StatefulPartitionedCall/predict/MobilenetV3/expanded_conv_12/expand/hard_swish/mul_1/y", "StatefulPartitionedCall/StatefulPartitionedCall/predict/MobilenetV3/expanded_conv_12/expand/BatchNorm/FusedBatchNormV3"], "attr": {"_grappler_ArithmeticOptimizer_MinimizeBroadcasts": {"b": true}, "T": {"type": "DT_FLOAT"}}}, {"name": "StatefulPartitionedCall/StatefulPartitionedCall/predict/MobilenetV3/expanded_conv_12/expand/hard_swish/add", "op": "AddV2", "input": ["StatefulPartitionedCall/StatefulPartitionedCall/predict/MobilenetV3/expanded_conv_12/expand/BatchNorm/FusedBatchNormV3", "StatefulPartitionedCall/StatefulPartitionedCall/predict/MobilenetV3/expanded_conv_12/expand/hard_swish/add/y"], "attr": {"T": {"type": "DT_FLOAT"}}}, {"name": "StatefulPartitionedCall/StatefulPartitionedCall/predict/MobilenetV3/expanded_conv_12/expand/hard_swish/Relu6", "op": "Relu6", "input": ["StatefulPartitionedCall/StatefulPartitionedCall/predict/MobilenetV3/expanded_conv_12/expand/hard_swish/add"], "attr": {"T": {"type": "DT_FLOAT"}}}, {"name": "StatefulPartitionedCall/StatefulPartitionedCall/predict/MobilenetV3/expanded_conv_12/expand/hard_swish/mul_1", "op": "Mul", "input": ["StatefulPartitionedCall/StatefulPartitionedCall/predict/MobilenetV3/expanded_conv_12/expand/hard_swish/mul", "StatefulPartitionedCall/StatefulPartitionedCall/predict/MobilenetV3/expanded_conv_12/expand/hard_swish/Relu6"], "attr": {"_grappler_ArithmeticOptimizer_MinimizeBroadcasts": {"b": true}, "T": {"type": "DT_FLOAT"}}}, {"name": "StatefulPartitionedCall/StatefulPartitionedCall/predict/MobilenetV3/expanded_conv_12/depthwise/depthwise", "op": "FusedDepthwiseConv2dNative", "input": ["StatefulPartitionedCall/StatefulPartitionedCall/predict/MobilenetV3/expanded_conv_12/expand/hard_swish/mul_1", "StatefulPartitionedCall/StatefulPartitionedCall/predict/MobilenetV3/expanded_conv_12/depthwise/depthwise_weights", "StatefulPartitionedCall/StatefulPartitionedCall/predict/MobilenetV3/expanded_conv_12/depthwise/depthwise_bn_offset"], "attr": {"T": {"type": "DT_FLOAT"}, "fused_ops": {"list": {"s": ["Qmlhc0FkZA=="]}}, "padding": {"s": "U0FNRQ=="}, "strides": {"list": {"i": ["1", "2", "2", "1"]}}, "dilations": {"list": {"i": ["1", "1", "1", "1"]}}, "num_args": {"i": "1"}, "data_format": {"s": "TkhXQw=="}, "explicit_paddings": {"list": {}}}}, {"name": "StatefulPartitionedCall/StatefulPartitionedCall/predict/MobilenetV3/expanded_conv_12/depthwise/hard_swish/mul", "op": "Mul", "input": ["StatefulPartitionedCall/StatefulPartitionedCall/predict/MobilenetV3/expanded_conv_12/depthwise/hard_swish/mul_1/y", "StatefulPartitionedCall/StatefulPartitionedCall/predict/MobilenetV3/expanded_conv_12/depthwise/depthwise"], "attr": {"T": {"type": "DT_FLOAT"}, "_grappler_ArithmeticOptimizer_MinimizeBroadcasts": {"b": true}}}, {"name": "StatefulPartitionedCall/StatefulPartitionedCall/predict/MobilenetV3/expanded_conv_12/depthwise/hard_swish/add", "op": "AddV2", "input": ["StatefulPartitionedCall/StatefulPartitionedCall/predict/MobilenetV3/expanded_conv_12/depthwise/depthwise", "StatefulPartitionedCall/StatefulPartitionedCall/predict/MobilenetV3/expanded_conv_12/depthwise/hard_swish/add/y"], "attr": {"T": {"type": "DT_FLOAT"}}}, {"name": "StatefulPartitionedCall/StatefulPartitionedCall/predict/MobilenetV3/expanded_conv_12/depthwise/hard_swish/Relu6", "op": "Relu6", "input": ["StatefulPartitionedCall/StatefulPartitionedCall/predict/MobilenetV3/expanded_conv_12/depthwise/hard_swish/add"], "attr": {"T": {"type": "DT_FLOAT"}}}, {"name": "StatefulPartitionedCall/StatefulPartitionedCall/predict/MobilenetV3/expanded_conv_12/depthwise/hard_swish/mul_1", "op": "Mul", "input": ["StatefulPartitionedCall/StatefulPartitionedCall/predict/MobilenetV3/expanded_conv_12/depthwise/hard_swish/mul", "StatefulPartitionedCall/StatefulPartitionedCall/predict/MobilenetV3/expanded_conv_12/depthwise/hard_swish/Relu6"], "attr": {"_grappler_ArithmeticOptimizer_MinimizeBroadcasts": {"b": true}, "T": {"type": "DT_FLOAT"}}}, {"name": "StatefulPartitionedCall/StatefulPartitionedCall/predict/MobilenetV3/expanded_conv_12/squeeze_excite/Mean", "op": "Mean", "input": ["StatefulPartitionedCall/StatefulPartitionedCall/predict/MobilenetV3/expanded_conv_12/depthwise/hard_swish/mul_1", "StatefulPartitionedCall/StatefulPartitionedCall/predict/MobilenetV3/expanded_conv_12/squeeze_excite/Mean/reduction_indices"], "attr": {"keep_dims": {"b": true}, "T": {"type": "DT_FLOAT"}, "Tidx": {"type": "DT_INT32"}}}, {"name": "StatefulPartitionedCall/StatefulPartitionedCall/predict/MobilenetV3/expanded_conv_12/squeeze_excite/Conv/Relu", "op": "_FusedConv2D", "input": ["StatefulPartitionedCall/StatefulPartitionedCall/predict/MobilenetV3/expanded_conv_12/squeeze_excite/Mean", "Func/StatefulPartitionedCall/StatefulPartitionedCall/input/_480", "Func/StatefulPartitionedCall/StatefulPartitionedCall/input/_481"], "device": "/device:CPU:0", "attr": {"num_args": {"i": "1"}, "strides": {"list": {"i": ["1", "1", "1", "1"]}}, "padding": {"s": "U0FNRQ=="}, "T": {"type": "DT_FLOAT"}, "dilations": {"list": {"i": ["1", "1", "1", "1"]}}, "epsilon": {"f": 0.0}, "explicit_paddings": {"list": {}}, "use_cudnn_on_gpu": {"b": true}, "fused_ops": {"list": {"s": ["Qmlhc0FkZA==", "UmVsdQ=="]}}, "data_format": {"s": "TkhXQw=="}}}, {"name": "StatefulPartitionedCall/StatefulPartitionedCall/predict/MobilenetV3/expanded_conv_12/squeeze_excite/Conv_1/BiasAdd", "op": "_FusedConv2D", "input": ["StatefulPartitionedCall/StatefulPartitionedCall/predict/MobilenetV3/expanded_conv_12/squeeze_excite/Conv/Relu", "Func/StatefulPartitionedCall/StatefulPartitionedCall/input/_482", "Func/StatefulPartitionedCall/StatefulPartitionedCall/input/_483"], "device": "/device:CPU:0", "attr": {"padding": {"s": "U0FNRQ=="}, "fused_ops": {"list": {"s": ["Qmlhc0FkZA=="]}}, "T": {"type": "DT_FLOAT"}, "epsilon": {"f": 0.0}, "num_args": {"i": "1"}, "dilations": {"list": {"i": ["1", "1", "1", "1"]}}, "explicit_paddings": {"list": {}}, "data_format": {"s": "TkhXQw=="}, "strides": {"list": {"i": ["1", "1", "1", "1"]}}, "use_cudnn_on_gpu": {"b": true}}}, {"name": "StatefulPartitionedCall/StatefulPartitionedCall/predict/MobilenetV3/expanded_conv_12/squeeze_excite/Conv_1/add", "op": "AddV2", "input": ["StatefulPartitionedCall/StatefulPartitionedCall/predict/MobilenetV3/expanded_conv_12/squeeze_excite/Conv_1/BiasAdd", "StatefulPartitionedCall/StatefulPartitionedCall/predict/MobilenetV3/expanded_conv_12/squeeze_excite/Conv_1/add/y"], "attr": {"T": {"type": "DT_FLOAT"}}}, {"name": "StatefulPartitionedCall/StatefulPartitionedCall/predict/MobilenetV3/expanded_conv_12/squeeze_excite/Conv_1/Relu6", "op": "Relu6", "input": ["StatefulPartitionedCall/StatefulPartitionedCall/predict/MobilenetV3/expanded_conv_12/squeeze_excite/Conv_1/add"], "attr": {"T": {"type": "DT_FLOAT"}}}, {"name": "StatefulPartitionedCall/StatefulPartitionedCall/predict/MobilenetV3/expanded_conv_12/squeeze_excite/Conv_1/mul", "op": "Mul", "input": ["StatefulPartitionedCall/StatefulPartitionedCall/predict/MobilenetV3/expanded_conv_12/squeeze_excite/Conv_1/mul/y", "StatefulPartitionedCall/StatefulPartitionedCall/predict/MobilenetV3/expanded_conv_12/squeeze_excite/Conv_1/Relu6"], "attr": {"_grappler_ArithmeticOptimizer_MinimizeBroadcasts": {"b": true}, "T": {"type": "DT_FLOAT"}}}, {"name": "StatefulPartitionedCall/StatefulPartitionedCall/predict/MobilenetV3/expanded_conv_12/squeeze_excite/mul", "op": "Mul", "input": ["StatefulPartitionedCall/StatefulPartitionedCall/predict/MobilenetV3/expanded_conv_12/squeeze_excite/Conv_1/mul", "StatefulPartitionedCall/StatefulPartitionedCall/predict/MobilenetV3/expanded_conv_12/depthwise/hard_swish/mul_1"], "attr": {"_grappler_ArithmeticOptimizer_MinimizeBroadcasts": {"b": true}, "T": {"type": "DT_FLOAT"}}}, {"name": "StatefulPartitionedCall/StatefulPartitionedCall/predict/MobilenetV3/expanded_conv_12/project/BatchNorm/FusedBatchNormV3", "op": "_FusedConv2D", "input": ["StatefulPartitionedCall/StatefulPartitionedCall/predict/MobilenetV3/expanded_conv_12/squeeze_excite/mul", "StatefulPartitionedCall/StatefulPartitionedCall/predict/MobilenetV3/expanded_conv_12/project/Conv2D_weights", "StatefulPartitionedCall/StatefulPartitionedCall/predict/MobilenetV3/expanded_conv_12/project/Conv2D_bn_offset"], "device": "/device:CPU:0", "attr": {"padding": {"s": "U0FNRQ=="}, "epsilon": {"f": 0.0}, "num_args": {"i": "1"}, "strides": {"list": {"i": ["1", "1", "1", "1"]}}, "T": {"type": "DT_FLOAT"}, "data_format": {"s": "TkhXQw=="}, "fused_ops": {"list": {"s": ["Qmlhc0FkZA=="]}}, "dilations": {"list": {"i": ["1", "1", "1", "1"]}}, "use_cudnn_on_gpu": {"b": true}, "explicit_paddings": {"list": {}}}}, {"name": "StatefulPartitionedCall/StatefulPartitionedCall/predict/MobilenetV3/expanded_conv_13/expand/BatchNorm/FusedBatchNormV3", "op": "_FusedConv2D", "input": ["StatefulPartitionedCall/StatefulPartitionedCall/predict/MobilenetV3/expanded_conv_12/project/BatchNorm/FusedBatchNormV3", "StatefulPartitionedCall/StatefulPartitionedCall/predict/MobilenetV3/expanded_conv_13/expand/Conv2D_weights", "StatefulPartitionedCall/StatefulPartitionedCall/predict/MobilenetV3/expanded_conv_13/expand/Conv2D_bn_offset"], "device": "/device:CPU:0", "attr": {"strides": {"list": {"i": ["1", "1", "1", "1"]}}, "padding": {"s": "U0FNRQ=="}, "num_args": {"i": "1"}, "data_format": {"s": "TkhXQw=="}, "T": {"type": "DT_FLOAT"}, "use_cudnn_on_gpu": {"b": true}, "dilations": {"list": {"i": ["1", "1", "1", "1"]}}, "epsilon": {"f": 0.0}, "fused_ops": {"list": {"s": ["Qmlhc0FkZA=="]}}, "explicit_paddings": {"list": {}}}}, {"name": "StatefulPartitionedCall/StatefulPartitionedCall/predict/MobilenetV3/expanded_conv_13/expand/hard_swish/mul", "op": "Mul", "input": ["StatefulPartitionedCall/StatefulPartitionedCall/predict/MobilenetV3/expanded_conv_13/expand/hard_swish/mul_1/y", "StatefulPartitionedCall/StatefulPartitionedCall/predict/MobilenetV3/expanded_conv_13/expand/BatchNorm/FusedBatchNormV3"], "attr": {"_grappler_ArithmeticOptimizer_MinimizeBroadcasts": {"b": true}, "T": {"type": "DT_FLOAT"}}}, {"name": "StatefulPartitionedCall/StatefulPartitionedCall/predict/MobilenetV3/expanded_conv_13/expand/hard_swish/add", "op": "AddV2", "input": ["StatefulPartitionedCall/StatefulPartitionedCall/predict/MobilenetV3/expanded_conv_13/expand/BatchNorm/FusedBatchNormV3", "StatefulPartitionedCall/StatefulPartitionedCall/predict/MobilenetV3/expanded_conv_13/expand/hard_swish/add/y"], "attr": {"T": {"type": "DT_FLOAT"}}}, {"name": "StatefulPartitionedCall/StatefulPartitionedCall/predict/MobilenetV3/expanded_conv_13/expand/hard_swish/Relu6", "op": "Relu6", "input": ["StatefulPartitionedCall/StatefulPartitionedCall/predict/MobilenetV3/expanded_conv_13/expand/hard_swish/add"], "attr": {"T": {"type": "DT_FLOAT"}}}, {"name": "StatefulPartitionedCall/StatefulPartitionedCall/predict/MobilenetV3/expanded_conv_13/expand/hard_swish/mul_1", "op": "Mul", "input": ["StatefulPartitionedCall/StatefulPartitionedCall/predict/MobilenetV3/expanded_conv_13/expand/hard_swish/mul", "StatefulPartitionedCall/StatefulPartitionedCall/predict/MobilenetV3/expanded_conv_13/expand/hard_swish/Relu6"], "attr": {"_grappler_ArithmeticOptimizer_MinimizeBroadcasts": {"b": true}, "T": {"type": "DT_FLOAT"}}}, {"name": "StatefulPartitionedCall/StatefulPartitionedCall/predict/MobilenetV3/expanded_conv_13/depthwise/depthwise", "op": "FusedDepthwiseConv2dNative", "input": ["StatefulPartitionedCall/StatefulPartitionedCall/predict/MobilenetV3/expanded_conv_13/expand/hard_swish/mul_1", "StatefulPartitionedCall/StatefulPartitionedCall/predict/MobilenetV3/expanded_conv_13/depthwise/depthwise_weights", "StatefulPartitionedCall/StatefulPartitionedCall/predict/MobilenetV3/expanded_conv_13/depthwise/depthwise_bn_offset"], "attr": {"fused_ops": {"list": {"s": ["Qmlhc0FkZA=="]}}, "padding": {"s": "U0FNRQ=="}, "strides": {"list": {"i": ["1", "1", "1", "1"]}}, "dilations": {"list": {"i": ["1", "1", "1", "1"]}}, "T": {"type": "DT_FLOAT"}, "num_args": {"i": "1"}, "explicit_paddings": {"list": {}}, "data_format": {"s": "TkhXQw=="}}}, {"name": "StatefulPartitionedCall/StatefulPartitionedCall/predict/MobilenetV3/expanded_conv_13/depthwise/hard_swish/mul", "op": "Mul", "input": ["StatefulPartitionedCall/StatefulPartitionedCall/predict/MobilenetV3/expanded_conv_13/depthwise/hard_swish/mul_1/y", "StatefulPartitionedCall/StatefulPartitionedCall/predict/MobilenetV3/expanded_conv_13/depthwise/depthwise"], "attr": {"T": {"type": "DT_FLOAT"}, "_grappler_ArithmeticOptimizer_MinimizeBroadcasts": {"b": true}}}, {"name": "StatefulPartitionedCall/StatefulPartitionedCall/predict/MobilenetV3/expanded_conv_13/depthwise/hard_swish/add", "op": "AddV2", "input": ["StatefulPartitionedCall/StatefulPartitionedCall/predict/MobilenetV3/expanded_conv_13/depthwise/depthwise", "StatefulPartitionedCall/StatefulPartitionedCall/predict/MobilenetV3/expanded_conv_13/depthwise/hard_swish/add/y"], "attr": {"T": {"type": "DT_FLOAT"}}}, {"name": "StatefulPartitionedCall/StatefulPartitionedCall/predict/MobilenetV3/expanded_conv_13/depthwise/hard_swish/Relu6", "op": "Relu6", "input": ["StatefulPartitionedCall/StatefulPartitionedCall/predict/MobilenetV3/expanded_conv_13/depthwise/hard_swish/add"], "attr": {"T": {"type": "DT_FLOAT"}}}, {"name": "StatefulPartitionedCall/StatefulPartitionedCall/predict/MobilenetV3/expanded_conv_13/depthwise/hard_swish/mul_1", "op": "Mul", "input": ["StatefulPartitionedCall/StatefulPartitionedCall/predict/MobilenetV3/expanded_conv_13/depthwise/hard_swish/mul", "StatefulPartitionedCall/StatefulPartitionedCall/predict/MobilenetV3/expanded_conv_13/depthwise/hard_swish/Relu6"], "attr": {"T": {"type": "DT_FLOAT"}, "_grappler_ArithmeticOptimizer_MinimizeBroadcasts": {"b": true}}}, {"name": "StatefulPartitionedCall/StatefulPartitionedCall/predict/MobilenetV3/expanded_conv_13/squeeze_excite/Mean", "op": "Mean", "input": ["StatefulPartitionedCall/StatefulPartitionedCall/predict/MobilenetV3/expanded_conv_13/depthwise/hard_swish/mul_1", "StatefulPartitionedCall/StatefulPartitionedCall/predict/MobilenetV3/expanded_conv_13/squeeze_excite/Mean/reduction_indices"], "attr": {"keep_dims": {"b": true}, "T": {"type": "DT_FLOAT"}, "Tidx": {"type": "DT_INT32"}}}, {"name": "StatefulPartitionedCall/StatefulPartitionedCall/predict/MobilenetV3/expanded_conv_13/squeeze_excite/Conv/Relu", "op": "_FusedConv2D", "input": ["StatefulPartitionedCall/StatefulPartitionedCall/predict/MobilenetV3/expanded_conv_13/squeeze_excite/Mean", "Func/StatefulPartitionedCall/StatefulPartitionedCall/input/_499", "Func/StatefulPartitionedCall/StatefulPartitionedCall/input/_500"], "device": "/device:CPU:0", "attr": {"data_format": {"s": "TkhXQw=="}, "padding": {"s": "U0FNRQ=="}, "explicit_paddings": {"list": {}}, "dilations": {"list": {"i": ["1", "1", "1", "1"]}}, "use_cudnn_on_gpu": {"b": true}, "num_args": {"i": "1"}, "epsilon": {"f": 0.0}, "T": {"type": "DT_FLOAT"}, "strides": {"list": {"i": ["1", "1", "1", "1"]}}, "fused_ops": {"list": {"s": ["Qmlhc0FkZA==", "UmVsdQ=="]}}}}, {"name": "StatefulPartitionedCall/StatefulPartitionedCall/predict/MobilenetV3/expanded_conv_13/squeeze_excite/Conv_1/BiasAdd", "op": "_FusedConv2D", "input": ["StatefulPartitionedCall/StatefulPartitionedCall/predict/MobilenetV3/expanded_conv_13/squeeze_excite/Conv/Relu", "Func/StatefulPartitionedCall/StatefulPartitionedCall/input/_501", "Func/StatefulPartitionedCall/StatefulPartitionedCall/input/_502"], "device": "/device:CPU:0", "attr": {"num_args": {"i": "1"}, "strides": {"list": {"i": ["1", "1", "1", "1"]}}, "explicit_paddings": {"list": {}}, "padding": {"s": "U0FNRQ=="}, "use_cudnn_on_gpu": {"b": true}, "data_format": {"s": "TkhXQw=="}, "fused_ops": {"list": {"s": ["Qmlhc0FkZA=="]}}, "epsilon": {"f": 0.0}, "T": {"type": "DT_FLOAT"}, "dilations": {"list": {"i": ["1", "1", "1", "1"]}}}}, {"name": "StatefulPartitionedCall/StatefulPartitionedCall/predict/MobilenetV3/expanded_conv_13/squeeze_excite/Conv_1/add", "op": "AddV2", "input": ["StatefulPartitionedCall/StatefulPartitionedCall/predict/MobilenetV3/expanded_conv_13/squeeze_excite/Conv_1/BiasAdd", "StatefulPartitionedCall/StatefulPartitionedCall/predict/MobilenetV3/expanded_conv_13/squeeze_excite/Conv_1/add/y"], "attr": {"T": {"type": "DT_FLOAT"}}}, {"name": "StatefulPartitionedCall/StatefulPartitionedCall/predict/MobilenetV3/expanded_conv_13/squeeze_excite/Conv_1/Relu6", "op": "Relu6", "input": ["StatefulPartitionedCall/StatefulPartitionedCall/predict/MobilenetV3/expanded_conv_13/squeeze_excite/Conv_1/add"], "attr": {"T": {"type": "DT_FLOAT"}}}, {"name": "StatefulPartitionedCall/StatefulPartitionedCall/predict/MobilenetV3/expanded_conv_13/squeeze_excite/Conv_1/mul", "op": "Mul", "input": ["StatefulPartitionedCall/StatefulPartitionedCall/predict/MobilenetV3/expanded_conv_13/squeeze_excite/Conv_1/mul/y", "StatefulPartitionedCall/StatefulPartitionedCall/predict/MobilenetV3/expanded_conv_13/squeeze_excite/Conv_1/Relu6"], "attr": {"_grappler_ArithmeticOptimizer_MinimizeBroadcasts": {"b": true}, "T": {"type": "DT_FLOAT"}}}, {"name": "StatefulPartitionedCall/StatefulPartitionedCall/predict/MobilenetV3/expanded_conv_13/squeeze_excite/mul", "op": "Mul", "input": ["StatefulPartitionedCall/StatefulPartitionedCall/predict/MobilenetV3/expanded_conv_13/squeeze_excite/Conv_1/mul", "StatefulPartitionedCall/StatefulPartitionedCall/predict/MobilenetV3/expanded_conv_13/depthwise/hard_swish/mul_1"], "attr": {"T": {"type": "DT_FLOAT"}, "_grappler_ArithmeticOptimizer_MinimizeBroadcasts": {"b": true}}}, {"name": "StatefulPartitionedCall/StatefulPartitionedCall/predict/MobilenetV3/expanded_conv_13/project/BatchNorm/FusedBatchNormV3", "op": "_FusedConv2D", "input": ["StatefulPartitionedCall/StatefulPartitionedCall/predict/MobilenetV3/expanded_conv_13/squeeze_excite/mul", "StatefulPartitionedCall/StatefulPartitionedCall/predict/MobilenetV3/expanded_conv_13/project/Conv2D_weights", "StatefulPartitionedCall/StatefulPartitionedCall/predict/MobilenetV3/expanded_conv_13/project/Conv2D_bn_offset"], "device": "/device:CPU:0", "attr": {"data_format": {"s": "TkhXQw=="}, "epsilon": {"f": 0.0}, "padding": {"s": "U0FNRQ=="}, "strides": {"list": {"i": ["1", "1", "1", "1"]}}, "dilations": {"list": {"i": ["1", "1", "1", "1"]}}, "use_cudnn_on_gpu": {"b": true}, "explicit_paddings": {"list": {}}, "fused_ops": {"list": {"s": ["Qmlhc0FkZA=="]}}, "T": {"type": "DT_FLOAT"}, "num_args": {"i": "1"}}}, {"name": "StatefulPartitionedCall/StatefulPartitionedCall/predict/MobilenetV3/expanded_conv_13/add", "op": "AddV2", "input": ["StatefulPartitionedCall/StatefulPartitionedCall/predict/MobilenetV3/expanded_conv_13/project/BatchNorm/FusedBatchNormV3", "StatefulPartitionedCall/StatefulPartitionedCall/predict/MobilenetV3/expanded_conv_12/project/BatchNorm/FusedBatchNormV3"], "attr": {"T": {"type": "DT_FLOAT"}}}, {"name": "StatefulPartitionedCall/StatefulPartitionedCall/predict/MobilenetV3/expanded_conv_14/expand/BatchNorm/FusedBatchNormV3", "op": "_FusedConv2D", "input": ["StatefulPartitionedCall/StatefulPartitionedCall/predict/MobilenetV3/expanded_conv_13/add", "StatefulPartitionedCall/StatefulPartitionedCall/predict/MobilenetV3/expanded_conv_14/expand/Conv2D_weights", "StatefulPartitionedCall/StatefulPartitionedCall/predict/MobilenetV3/expanded_conv_14/expand/Conv2D_bn_offset"], "device": "/device:CPU:0", "attr": {"fused_ops": {"list": {"s": ["Qmlhc0FkZA=="]}}, "data_format": {"s": "TkhXQw=="}, "use_cudnn_on_gpu": {"b": true}, "padding": {"s": "U0FNRQ=="}, "explicit_paddings": {"list": {}}, "epsilon": {"f": 0.0}, "num_args": {"i": "1"}, "strides": {"list": {"i": ["1", "1", "1", "1"]}}, "T": {"type": "DT_FLOAT"}, "dilations": {"list": {"i": ["1", "1", "1", "1"]}}}}, {"name": "StatefulPartitionedCall/StatefulPartitionedCall/predict/MobilenetV3/expanded_conv_14/expand/hard_swish/mul", "op": "Mul", "input": ["StatefulPartitionedCall/StatefulPartitionedCall/predict/MobilenetV3/expanded_conv_14/expand/hard_swish/mul_1/y", "StatefulPartitionedCall/StatefulPartitionedCall/predict/MobilenetV3/expanded_conv_14/expand/BatchNorm/FusedBatchNormV3"], "attr": {"T": {"type": "DT_FLOAT"}, "_grappler_ArithmeticOptimizer_MinimizeBroadcasts": {"b": true}}}, {"name": "StatefulPartitionedCall/StatefulPartitionedCall/predict/MobilenetV3/expanded_conv_14/expand/hard_swish/add", "op": "AddV2", "input": ["StatefulPartitionedCall/StatefulPartitionedCall/predict/MobilenetV3/expanded_conv_14/expand/BatchNorm/FusedBatchNormV3", "StatefulPartitionedCall/StatefulPartitionedCall/predict/MobilenetV3/expanded_conv_14/expand/hard_swish/add/y"], "attr": {"T": {"type": "DT_FLOAT"}}}, {"name": "StatefulPartitionedCall/StatefulPartitionedCall/predict/MobilenetV3/expanded_conv_14/expand/hard_swish/Relu6", "op": "Relu6", "input": ["StatefulPartitionedCall/StatefulPartitionedCall/predict/MobilenetV3/expanded_conv_14/expand/hard_swish/add"], "attr": {"T": {"type": "DT_FLOAT"}}}, {"name": "StatefulPartitionedCall/StatefulPartitionedCall/predict/MobilenetV3/expanded_conv_14/expand/hard_swish/mul_1", "op": "Mul", "input": ["StatefulPartitionedCall/StatefulPartitionedCall/predict/MobilenetV3/expanded_conv_14/expand/hard_swish/mul", "StatefulPartitionedCall/StatefulPartitionedCall/predict/MobilenetV3/expanded_conv_14/expand/hard_swish/Relu6"], "attr": {"T": {"type": "DT_FLOAT"}, "_grappler_ArithmeticOptimizer_MinimizeBroadcasts": {"b": true}}}, {"name": "StatefulPartitionedCall/StatefulPartitionedCall/predict/MobilenetV3/expanded_conv_14/depthwise/depthwise", "op": "FusedDepthwiseConv2dNative", "input": ["StatefulPartitionedCall/StatefulPartitionedCall/predict/MobilenetV3/expanded_conv_14/expand/hard_swish/mul_1", "StatefulPartitionedCall/StatefulPartitionedCall/predict/MobilenetV3/expanded_conv_14/depthwise/depthwise_weights", "StatefulPartitionedCall/StatefulPartitionedCall/predict/MobilenetV3/expanded_conv_14/depthwise/depthwise_bn_offset"], "attr": {"num_args": {"i": "1"}, "strides": {"list": {"i": ["1", "1", "1", "1"]}}, "explicit_paddings": {"list": {}}, "dilations": {"list": {"i": ["1", "1", "1", "1"]}}, "T": {"type": "DT_FLOAT"}, "padding": {"s": "U0FNRQ=="}, "fused_ops": {"list": {"s": ["Qmlhc0FkZA=="]}}, "data_format": {"s": "TkhXQw=="}}}, {"name": "StatefulPartitionedCall/StatefulPartitionedCall/predict/MobilenetV3/expanded_conv_14/depthwise/hard_swish/mul", "op": "Mul", "input": ["StatefulPartitionedCall/StatefulPartitionedCall/predict/MobilenetV3/expanded_conv_14/depthwise/hard_swish/mul_1/y", "StatefulPartitionedCall/StatefulPartitionedCall/predict/MobilenetV3/expanded_conv_14/depthwise/depthwise"], "attr": {"T": {"type": "DT_FLOAT"}, "_grappler_ArithmeticOptimizer_MinimizeBroadcasts": {"b": true}}}, {"name": "StatefulPartitionedCall/StatefulPartitionedCall/predict/MobilenetV3/expanded_conv_14/depthwise/hard_swish/add", "op": "AddV2", "input": ["StatefulPartitionedCall/StatefulPartitionedCall/predict/MobilenetV3/expanded_conv_14/depthwise/depthwise", "StatefulPartitionedCall/StatefulPartitionedCall/predict/MobilenetV3/expanded_conv_14/depthwise/hard_swish/add/y"], "attr": {"T": {"type": "DT_FLOAT"}}}, {"name": "StatefulPartitionedCall/StatefulPartitionedCall/predict/MobilenetV3/expanded_conv_14/depthwise/hard_swish/Relu6", "op": "Relu6", "input": ["StatefulPartitionedCall/StatefulPartitionedCall/predict/MobilenetV3/expanded_conv_14/depthwise/hard_swish/add"], "attr": {"T": {"type": "DT_FLOAT"}}}, {"name": "StatefulPartitionedCall/StatefulPartitionedCall/predict/MobilenetV3/expanded_conv_14/depthwise/hard_swish/mul_1", "op": "Mul", "input": ["StatefulPartitionedCall/StatefulPartitionedCall/predict/MobilenetV3/expanded_conv_14/depthwise/hard_swish/mul", "StatefulPartitionedCall/StatefulPartitionedCall/predict/MobilenetV3/expanded_conv_14/depthwise/hard_swish/Relu6"], "attr": {"T": {"type": "DT_FLOAT"}, "_grappler_ArithmeticOptimizer_MinimizeBroadcasts": {"b": true}}}, {"name": "StatefulPartitionedCall/StatefulPartitionedCall/predict/MobilenetV3/expanded_conv_14/squeeze_excite/Mean", "op": "Mean", "input": ["StatefulPartitionedCall/StatefulPartitionedCall/predict/MobilenetV3/expanded_conv_14/depthwise/hard_swish/mul_1", "StatefulPartitionedCall/StatefulPartitionedCall/predict/MobilenetV3/expanded_conv_14/squeeze_excite/Mean/reduction_indices"], "attr": {"Tidx": {"type": "DT_INT32"}, "keep_dims": {"b": true}, "T": {"type": "DT_FLOAT"}}}, {"name": "StatefulPartitionedCall/StatefulPartitionedCall/predict/MobilenetV3/expanded_conv_14/squeeze_excite/Conv/Relu", "op": "_FusedConv2D", "input": ["StatefulPartitionedCall/StatefulPartitionedCall/predict/MobilenetV3/expanded_conv_14/squeeze_excite/Mean", "Func/StatefulPartitionedCall/StatefulPartitionedCall/input/_518", "Func/StatefulPartitionedCall/StatefulPartitionedCall/input/_519"], "device": "/device:CPU:0", "attr": {"data_format": {"s": "TkhXQw=="}, "explicit_paddings": {"list": {}}, "num_args": {"i": "1"}, "padding": {"s": "U0FNRQ=="}, "dilations": {"list": {"i": ["1", "1", "1", "1"]}}, "use_cudnn_on_gpu": {"b": true}, "strides": {"list": {"i": ["1", "1", "1", "1"]}}, "T": {"type": "DT_FLOAT"}, "epsilon": {"f": 0.0}, "fused_ops": {"list": {"s": ["Qmlhc0FkZA==", "UmVsdQ=="]}}}}, {"name": "StatefulPartitionedCall/StatefulPartitionedCall/predict/MobilenetV3/expanded_conv_14/squeeze_excite/Conv_1/BiasAdd", "op": "_FusedConv2D", "input": ["StatefulPartitionedCall/StatefulPartitionedCall/predict/MobilenetV3/expanded_conv_14/squeeze_excite/Conv/Relu", "Func/StatefulPartitionedCall/StatefulPartitionedCall/input/_520", "Func/StatefulPartitionedCall/StatefulPartitionedCall/input/_521"], "device": "/device:CPU:0", "attr": {"padding": {"s": "U0FNRQ=="}, "strides": {"list": {"i": ["1", "1", "1", "1"]}}, "dilations": {"list": {"i": ["1", "1", "1", "1"]}}, "T": {"type": "DT_FLOAT"}, "epsilon": {"f": 0.0}, "fused_ops": {"list": {"s": ["Qmlhc0FkZA=="]}}, "explicit_paddings": {"list": {}}, "use_cudnn_on_gpu": {"b": true}, "num_args": {"i": "1"}, "data_format": {"s": "TkhXQw=="}}}, {"name": "StatefulPartitionedCall/StatefulPartitionedCall/predict/MobilenetV3/expanded_conv_14/squeeze_excite/Conv_1/add", "op": "AddV2", "input": ["StatefulPartitionedCall/StatefulPartitionedCall/predict/MobilenetV3/expanded_conv_14/squeeze_excite/Conv_1/BiasAdd", "StatefulPartitionedCall/StatefulPartitionedCall/predict/MobilenetV3/expanded_conv_14/squeeze_excite/Conv_1/add/y"], "attr": {"T": {"type": "DT_FLOAT"}}}, {"name": "StatefulPartitionedCall/StatefulPartitionedCall/predict/MobilenetV3/expanded_conv_14/squeeze_excite/Conv_1/Relu6", "op": "Relu6", "input": ["StatefulPartitionedCall/StatefulPartitionedCall/predict/MobilenetV3/expanded_conv_14/squeeze_excite/Conv_1/add"], "attr": {"T": {"type": "DT_FLOAT"}}}, {"name": "StatefulPartitionedCall/StatefulPartitionedCall/predict/MobilenetV3/expanded_conv_14/squeeze_excite/Conv_1/mul", "op": "Mul", "input": ["StatefulPartitionedCall/StatefulPartitionedCall/predict/MobilenetV3/expanded_conv_14/squeeze_excite/Conv_1/mul/y", "StatefulPartitionedCall/StatefulPartitionedCall/predict/MobilenetV3/expanded_conv_14/squeeze_excite/Conv_1/Relu6"], "attr": {"T": {"type": "DT_FLOAT"}, "_grappler_ArithmeticOptimizer_MinimizeBroadcasts": {"b": true}}}, {"name": "StatefulPartitionedCall/StatefulPartitionedCall/predict/MobilenetV3/expanded_conv_14/squeeze_excite/mul", "op": "Mul", "input": ["StatefulPartitionedCall/StatefulPartitionedCall/predict/MobilenetV3/expanded_conv_14/squeeze_excite/Conv_1/mul", "StatefulPartitionedCall/StatefulPartitionedCall/predict/MobilenetV3/expanded_conv_14/depthwise/hard_swish/mul_1"], "attr": {"T": {"type": "DT_FLOAT"}, "_grappler_ArithmeticOptimizer_MinimizeBroadcasts": {"b": true}}}, {"name": "StatefulPartitionedCall/StatefulPartitionedCall/predict/MobilenetV3/expanded_conv_14/project/BatchNorm/FusedBatchNormV3", "op": "_FusedConv2D", "input": ["StatefulPartitionedCall/StatefulPartitionedCall/predict/MobilenetV3/expanded_conv_14/squeeze_excite/mul", "StatefulPartitionedCall/StatefulPartitionedCall/predict/MobilenetV3/expanded_conv_14/project/Conv2D_weights", "StatefulPartitionedCall/StatefulPartitionedCall/predict/MobilenetV3/expanded_conv_14/project/Conv2D_bn_offset"], "device": "/device:CPU:0", "attr": {"strides": {"list": {"i": ["1", "1", "1", "1"]}}, "fused_ops": {"list": {"s": ["Qmlhc0FkZA=="]}}, "padding": {"s": "U0FNRQ=="}, "dilations": {"list": {"i": ["1", "1", "1", "1"]}}, "data_format": {"s": "TkhXQw=="}, "T": {"type": "DT_FLOAT"}, "explicit_paddings": {"list": {}}, "use_cudnn_on_gpu": {"b": true}, "num_args": {"i": "1"}, "epsilon": {"f": 0.0}}}, {"name": "StatefulPartitionedCall/StatefulPartitionedCall/predict/MobilenetV3/expanded_conv_14/add", "op": "AddV2", "input": ["StatefulPartitionedCall/StatefulPartitionedCall/predict/MobilenetV3/expanded_conv_14/project/BatchNorm/FusedBatchNormV3", "StatefulPartitionedCall/StatefulPartitionedCall/predict/MobilenetV3/expanded_conv_13/add"], "attr": {"T": {"type": "DT_FLOAT"}}}, {"name": "StatefulPartitionedCall/StatefulPartitionedCall/predict/MobilenetV3/Conv_1/BatchNorm/FusedBatchNormV3", "op": "_FusedConv2D", "input": ["StatefulPartitionedCall/StatefulPartitionedCall/predict/MobilenetV3/expanded_conv_14/add", "StatefulPartitionedCall/StatefulPartitionedCall/predict/MobilenetV3/Conv_1/Conv2D_weights", "StatefulPartitionedCall/StatefulPartitionedCall/predict/MobilenetV3/Conv_1/Conv2D_bn_offset"], "device": "/device:CPU:0", "attr": {"T": {"type": "DT_FLOAT"}, "dilations": {"list": {"i": ["1", "1", "1", "1"]}}, "explicit_paddings": {"list": {}}, "fused_ops": {"list": {"s": ["Qmlhc0FkZA=="]}}, "num_args": {"i": "1"}, "use_cudnn_on_gpu": {"b": true}, "strides": {"list": {"i": ["1", "1", "1", "1"]}}, "padding": {"s": "U0FNRQ=="}, "epsilon": {"f": 0.0}, "data_format": {"s": "TkhXQw=="}}}, {"name": "StatefulPartitionedCall/StatefulPartitionedCall/predict/MobilenetV3/Conv_1/hard_swish/mul", "op": "Mul", "input": ["StatefulPartitionedCall/StatefulPartitionedCall/predict/MobilenetV3/Conv_1/hard_swish/mul_1/y", "StatefulPartitionedCall/StatefulPartitionedCall/predict/MobilenetV3/Conv_1/BatchNorm/FusedBatchNormV3"], "attr": {"T": {"type": "DT_FLOAT"}, "_grappler_ArithmeticOptimizer_MinimizeBroadcasts": {"b": true}}}, {"name": "StatefulPartitionedCall/StatefulPartitionedCall/predict/MobilenetV3/Conv_1/hard_swish/add", "op": "AddV2", "input": ["StatefulPartitionedCall/StatefulPartitionedCall/predict/MobilenetV3/Conv_1/BatchNorm/FusedBatchNormV3", "StatefulPartitionedCall/StatefulPartitionedCall/predict/MobilenetV3/Conv_1/hard_swish/add/y"], "attr": {"T": {"type": "DT_FLOAT"}}}, {"name": "StatefulPartitionedCall/StatefulPartitionedCall/predict/MobilenetV3/Conv_1/hard_swish/Relu6", "op": "Relu6", "input": ["StatefulPartitionedCall/StatefulPartitionedCall/predict/MobilenetV3/Conv_1/hard_swish/add"], "attr": {"T": {"type": "DT_FLOAT"}}}, {"name": "StatefulPartitionedCall/StatefulPartitionedCall/predict/MobilenetV3/Conv_1/hard_swish/mul_1", "op": "Mul", "input": ["StatefulPartitionedCall/StatefulPartitionedCall/predict/MobilenetV3/Conv_1/hard_swish/mul", "StatefulPartitionedCall/StatefulPartitionedCall/predict/MobilenetV3/Conv_1/hard_swish/Relu6"], "attr": {"T": {"type": "DT_FLOAT"}, "_grappler_ArithmeticOptimizer_MinimizeBroadcasts": {"b": true}}}, {"name": "StatefulPartitionedCall/StatefulPartitionedCall/predict/MobilenetV3/AvgPool2D/AvgPool", "op": "AvgPool", "input": ["StatefulPartitionedCall/StatefulPartitionedCall/predict/MobilenetV3/Conv_1/hard_swish/mul_1"], "attr": {"ksize": {"list": {"i": ["1", "7", "7", "1"]}}, "padding": {"s": "VkFMSUQ="}, "strides": {"list": {"i": ["1", "1", "1", "1"]}}, "T": {"type": "DT_FLOAT"}, "data_format": {"s": "TkhXQw=="}}}, {"name": "StatefulPartitionedCall/StatefulPartitionedCall/predict/MobilenetV3/Conv_2/BiasAdd", "op": "_FusedConv2D", "input": ["StatefulPartitionedCall/StatefulPartitionedCall/predict/MobilenetV3/AvgPool2D/AvgPool", "Func/StatefulPartitionedCall/StatefulPartitionedCall/input/_532", "Func/StatefulPartitionedCall/StatefulPartitionedCall/input/_533"], "device": "/device:CPU:0", "attr": {"padding": {"s": "U0FNRQ=="}, "use_cudnn_on_gpu": {"b": true}, "T": {"type": "DT_FLOAT"}, "epsilon": {"f": 0.0}, "num_args": {"i": "1"}, "explicit_paddings": {"list": {}}, "dilations": {"list": {"i": ["1", "1", "1", "1"]}}, "fused_ops": {"list": {"s": ["Qmlhc0FkZA=="]}}, "strides": {"list": {"i": ["1", "1", "1", "1"]}}, "data_format": {"s": "TkhXQw=="}}}, {"name": "StatefulPartitionedCall/StatefulPartitionedCall/predict/MobilenetV3/Conv_2/hard_swish/mul", "op": "Mul", "input": ["StatefulPartitionedCall/StatefulPartitionedCall/predict/MobilenetV3/Conv_2/hard_swish/mul_1/y", "StatefulPartitionedCall/StatefulPartitionedCall/predict/MobilenetV3/Conv_2/BiasAdd"], "attr": {"T": {"type": "DT_FLOAT"}, "_grappler_ArithmeticOptimizer_MinimizeBroadcasts": {"b": true}}}, {"name": "StatefulPartitionedCall/StatefulPartitionedCall/predict/MobilenetV3/Conv_2/hard_swish/add", "op": "AddV2", "input": ["StatefulPartitionedCall/StatefulPartitionedCall/predict/MobilenetV3/Conv_2/BiasAdd", "StatefulPartitionedCall/StatefulPartitionedCall/predict/MobilenetV3/Conv_2/hard_swish/add/y"], "attr": {"T": {"type": "DT_FLOAT"}}}, {"name": "StatefulPartitionedCall/StatefulPartitionedCall/predict/MobilenetV3/Conv_2/hard_swish/Relu6", "op": "Relu6", "input": ["StatefulPartitionedCall/StatefulPartitionedCall/predict/MobilenetV3/Conv_2/hard_swish/add"], "attr": {"T": {"type": "DT_FLOAT"}}}, {"name": "StatefulPartitionedCall/StatefulPartitionedCall/predict/MobilenetV3/Conv_2/hard_swish/mul_1", "op": "Mul", "input": ["StatefulPartitionedCall/StatefulPartitionedCall/predict/MobilenetV3/Conv_2/hard_swish/mul", "StatefulPartitionedCall/StatefulPartitionedCall/predict/MobilenetV3/Conv_2/hard_swish/Relu6"], "attr": {"_grappler_ArithmeticOptimizer_MinimizeBroadcasts": {"b": true}, "T": {"type": "DT_FLOAT"}}}, {"name": "StatefulPartitionedCall/StatefulPartitionedCall/predict/MobilenetV3/Logits/AvgPool", "op": "AvgPool", "input": ["StatefulPartitionedCall/StatefulPartitionedCall/predict/MobilenetV3/Conv_2/hard_swish/mul_1"], "attr": {"padding": {"s": "VkFMSUQ="}, "strides": {"list": {"i": ["1", "1", "1", "1"]}}, "ksize": {"list": {"i": ["1", "1", "1", "1"]}}, "T": {"type": "DT_FLOAT"}, "data_format": {"s": "TkhXQw=="}}}, {"name": "StatefulPartitionedCall/StatefulPartitionedCall/predict/feature_vector/SpatialSqueeze", "op": "Squeeze", "input": ["StatefulPartitionedCall/StatefulPartitionedCall/predict/MobilenetV3/Logits/AvgPool"], "attr": {"squeeze_dims": {"list": {"i": ["1", "2"]}}, "T": {"type": "DT_FLOAT"}}}, {"name": "Identity", "op": "Identity", "input": ["StatefulPartitionedCall/StatefulPartitionedCall/predict/feature_vector/SpatialSqueeze"], "attr": {"T": {"type": "DT_FLOAT"}}}], "library": {}, "versions": {"producer": 561}}, "weightsManifest": [{"paths": ["group1-shard1of4.bin", "group1-shard2of4.bin", "group1-shard3of4.bin", "group1-shard4of4.bin"], "weights": [{"name": "StatefulPartitionedCall/StatefulPartitionedCall/predict/MobilenetV3/Conv/Conv2D_weights", "shape": [3, 3, 3, 16], "dtype": "float32"}, {"name": "StatefulPartitionedCall/StatefulPartitionedCall/predict/MobilenetV3/Conv/Conv2D_bn_offset", "shape": [16], "dtype": "float32"}, {"name": "StatefulPartitionedCall/StatefulPartitionedCall/predict/MobilenetV3/expanded_conv/depthwise/depthwise_weights", "shape": [3, 3, 16, 1], "dtype": "float32"}, {"name": "StatefulPartitionedCall/StatefulPartitionedCall/predict/MobilenetV3/expanded_conv/depthwise/depthwise_bn_offset", "shape": [16], "dtype": "float32"}, {"name": "StatefulPartitionedCall/StatefulPartitionedCall/predict/MobilenetV3/expanded_conv/project/Conv2D_weights", "shape": [1, 1, 16, 16], "dtype": "float32"}, {"name": "StatefulPartitionedCall/StatefulPartitionedCall/predict/MobilenetV3/expanded_conv/project/Conv2D_bn_offset", "shape": [16], "dtype": "float32"}, {"name": "StatefulPartitionedCall/StatefulPartitionedCall/predict/MobilenetV3/expanded_conv_1/expand/Conv2D_weights", "shape": [1, 1, 16, 64], "dtype": "float32"}, {"name": "StatefulPartitionedCall/StatefulPartitionedCall/predict/MobilenetV3/expanded_conv_1/expand/Conv2D_bn_offset", "shape": [64], "dtype": "float32"}, {"name": "StatefulPartitionedCall/StatefulPartitionedCall/predict/MobilenetV3/expanded_conv_1/depthwise/depthwise_weights", "shape": [3, 3, 64, 1], "dtype": "float32"}, {"name": "StatefulPartitionedCall/StatefulPartitionedCall/predict/MobilenetV3/expanded_conv_1/depthwise/depthwise_bn_offset", "shape": [64], "dtype": "float32"}, {"name": "StatefulPartitionedCall/StatefulPartitionedCall/predict/MobilenetV3/expanded_conv_1/project/Conv2D_weights", "shape": [1, 1, 64, 24], "dtype": "float32"}, {"name": "StatefulPartitionedCall/StatefulPartitionedCall/predict/MobilenetV3/expanded_conv_1/project/Conv2D_bn_offset", "shape": [24], "dtype": "float32"}, {"name": "StatefulPartitionedCall/StatefulPartitionedCall/predict/MobilenetV3/expanded_conv_2/expand/Conv2D_weights", "shape": [1, 1, 24, 72], "dtype": "float32"}, {"name": "StatefulPartitionedCall/StatefulPartitionedCall/predict/MobilenetV3/expanded_conv_2/expand/Conv2D_bn_offset", "shape": [72], "dtype": "float32"}, {"name": "StatefulPartitionedCall/StatefulPartitionedCall/predict/MobilenetV3/expanded_conv_2/depthwise/depthwise_weights", "shape": [3, 3, 72, 1], "dtype": "float32"}, {"name": "StatefulPartitionedCall/StatefulPartitionedCall/predict/MobilenetV3/expanded_conv_2/depthwise/depthwise_bn_offset", "shape": [72], "dtype": "float32"}, {"name": "StatefulPartitionedCall/StatefulPartitionedCall/predict/MobilenetV3/expanded_conv_2/project/Conv2D_weights", "shape": [1, 1, 72, 24], "dtype": "float32"}, {"name": "StatefulPartitionedCall/StatefulPartitionedCall/predict/MobilenetV3/expanded_conv_13/project/Conv2D_weights", "shape": [1, 1, 960, 160], "dtype": "float32"}, {"name": "StatefulPartitionedCall/StatefulPartitionedCall/predict/MobilenetV3/expanded_conv_2/project/Conv2D_bn_offset", "shape": [24], "dtype": "float32"}, {"name": "StatefulPartitionedCall/StatefulPartitionedCall/predict/MobilenetV3/expanded_conv_3/expand/Conv2D_weights", "shape": [1, 1, 24, 72], "dtype": "float32"}, {"name": "StatefulPartitionedCall/StatefulPartitionedCall/predict/MobilenetV3/expanded_conv_3/expand/Conv2D_bn_offset", "shape": [72], "dtype": "float32"}, {"name": "StatefulPartitionedCall/StatefulPartitionedCall/predict/MobilenetV3/expanded_conv_13/project/Conv2D_bn_offset", "shape": [160], "dtype": "float32"}, {"name": "StatefulPartitionedCall/StatefulPartitionedCall/predict/MobilenetV3/expanded_conv_3/depthwise/depthwise_weights", "shape": [5, 5, 72, 1], "dtype": "float32"}, {"name": "StatefulPartitionedCall/StatefulPartitionedCall/predict/MobilenetV3/expanded_conv_3/depthwise/depthwise_bn_offset", "shape": [72], "dtype": "float32"}, {"name": "StatefulPartitionedCall/StatefulPartitionedCall/predict/MobilenetV3/expanded_conv_14/expand/Conv2D_weights", "shape": [1, 1, 160, 960], "dtype": "float32"}, {"name": "StatefulPartitionedCall/StatefulPartitionedCall/predict/MobilenetV3/expanded_conv_3/project/Conv2D_weights", "shape": [1, 1, 72, 40], "dtype": "float32"}, {"name": "StatefulPartitionedCall/StatefulPartitionedCall/predict/MobilenetV3/expanded_conv_3/project/Conv2D_bn_offset", "shape": [40], "dtype": "float32"}, {"name": "StatefulPartitionedCall/StatefulPartitionedCall/predict/MobilenetV3/expanded_conv_4/expand/Conv2D_weights", "shape": [1, 1, 40, 120], "dtype": "float32"}, {"name": "StatefulPartitionedCall/StatefulPartitionedCall/predict/MobilenetV3/expanded_conv_14/expand/Conv2D_bn_offset", "shape": [960], "dtype": "float32"}, {"name": "StatefulPartitionedCall/StatefulPartitionedCall/predict/MobilenetV3/expanded_conv_4/expand/Conv2D_bn_offset", "shape": [120], "dtype": "float32"}, {"name": "StatefulPartitionedCall/StatefulPartitionedCall/predict/MobilenetV3/expanded_conv_4/depthwise/depthwise_weights", "shape": [5, 5, 120, 1], "dtype": "float32"}, {"name": "StatefulPartitionedCall/StatefulPartitionedCall/predict/MobilenetV3/expanded_conv_4/depthwise/depthwise_bn_offset", "shape": [120], "dtype": "float32"}, {"name": "StatefulPartitionedCall/StatefulPartitionedCall/predict/MobilenetV3/expanded_conv_4/project/Conv2D_weights", "shape": [1, 1, 120, 40], "dtype": "float32"}, {"name": "StatefulPartitionedCall/StatefulPartitionedCall/predict/MobilenetV3/expanded_conv_4/project/Conv2D_bn_offset", "shape": [40], "dtype": "float32"}, {"name": "StatefulPartitionedCall/StatefulPartitionedCall/predict/MobilenetV3/expanded_conv_5/expand/Conv2D_weights", "shape": [1, 1, 40, 120], "dtype": "float32"}, {"name": "StatefulPartitionedCall/StatefulPartitionedCall/predict/MobilenetV3/expanded_conv_14/depthwise/depthwise_weights", "shape": [5, 5, 960, 1], "dtype": "float32"}, {"name": "StatefulPartitionedCall/StatefulPartitionedCall/predict/MobilenetV3/expanded_conv_5/expand/Conv2D_bn_offset", "shape": [120], "dtype": "float32"}, {"name": "StatefulPartitionedCall/StatefulPartitionedCall/predict/MobilenetV3/expanded_conv_5/depthwise/depthwise_weights", "shape": [5, 5, 120, 1], "dtype": "float32"}, {"name": "StatefulPartitionedCall/StatefulPartitionedCall/predict/MobilenetV3/expanded_conv_5/depthwise/depthwise_bn_offset", "shape": [120], "dtype": "float32"}, {"name": "StatefulPartitionedCall/StatefulPartitionedCall/predict/MobilenetV3/expanded_conv_14/depthwise/depthwise_bn_offset", "shape": [960], "dtype": "float32"}, {"name": "StatefulPartitionedCall/StatefulPartitionedCall/predict/MobilenetV3/expanded_conv_5/project/Conv2D_weights", "shape": [1, 1, 120, 40], "dtype": "float32"}, {"name": "StatefulPartitionedCall/StatefulPartitionedCall/predict/MobilenetV3/expanded_conv_5/project/Conv2D_bn_offset", "shape": [40], "dtype": "float32"}, {"name": "StatefulPartitionedCall/StatefulPartitionedCall/predict/MobilenetV3/expanded_conv_6/expand/Conv2D_weights", "shape": [1, 1, 40, 240], "dtype": "float32"}, {"name": "StatefulPartitionedCall/StatefulPartitionedCall/predict/MobilenetV3/expanded_conv_6/expand/Conv2D_bn_offset", "shape": [240], "dtype": "float32"}, {"name": "StatefulPartitionedCall/StatefulPartitionedCall/predict/MobilenetV3/expanded_conv_6/depthwise/depthwise_weights", "shape": [3, 3, 240, 1], "dtype": "float32"}, {"name": "StatefulPartitionedCall/StatefulPartitionedCall/predict/MobilenetV3/expanded_conv_6/depthwise/depthwise_bn_offset", "shape": [240], "dtype": "float32"}, {"name": "StatefulPartitionedCall/StatefulPartitionedCall/predict/MobilenetV3/expanded_conv_6/project/Conv2D_weights", "shape": [1, 1, 240, 80], "dtype": "float32"}, {"name": "StatefulPartitionedCall/StatefulPartitionedCall/predict/MobilenetV3/expanded_conv_6/project/Conv2D_bn_offset", "shape": [80], "dtype": "float32"}, {"name": "StatefulPartitionedCall/StatefulPartitionedCall/predict/MobilenetV3/expanded_conv_7/expand/Conv2D_weights", "shape": [1, 1, 80, 200], "dtype": "float32"}, {"name": "StatefulPartitionedCall/StatefulPartitionedCall/predict/MobilenetV3/expanded_conv_7/expand/Conv2D_bn_offset", "shape": [200], "dtype": "float32"}, {"name": "StatefulPartitionedCall/StatefulPartitionedCall/predict/MobilenetV3/expanded_conv_7/depthwise/depthwise_weights", "shape": [3, 3, 200, 1], "dtype": "float32"}, {"name": "StatefulPartitionedCall/StatefulPartitionedCall/predict/MobilenetV3/expanded_conv_7/depthwise/depthwise_bn_offset", "shape": [200], "dtype": "float32"}, {"name": "StatefulPartitionedCall/StatefulPartitionedCall/predict/MobilenetV3/expanded_conv_7/project/Conv2D_weights", "shape": [1, 1, 200, 80], "dtype": "float32"}, {"name": "StatefulPartitionedCall/StatefulPartitionedCall/predict/MobilenetV3/expanded_conv_7/project/Conv2D_bn_offset", "shape": [80], "dtype": "float32"}, {"name": "StatefulPartitionedCall/StatefulPartitionedCall/predict/MobilenetV3/expanded_conv_8/expand/Conv2D_weights", "shape": [1, 1, 80, 184], "dtype": "float32"}, {"name": "StatefulPartitionedCall/StatefulPartitionedCall/predict/MobilenetV3/expanded_conv_8/expand/Conv2D_bn_offset", "shape": [184], "dtype": "float32"}, {"name": "StatefulPartitionedCall/StatefulPartitionedCall/predict/MobilenetV3/expanded_conv_8/depthwise/depthwise_weights", "shape": [3, 3, 184, 1], "dtype": "float32"}, {"name": "StatefulPartitionedCall/StatefulPartitionedCall/predict/MobilenetV3/expanded_conv_8/depthwise/depthwise_bn_offset", "shape": [184], "dtype": "float32"}, {"name": "StatefulPartitionedCall/StatefulPartitionedCall/predict/MobilenetV3/expanded_conv_8/project/Conv2D_weights", "shape": [1, 1, 184, 80], "dtype": "float32"}, {"name": "StatefulPartitionedCall/StatefulPartitionedCall/predict/MobilenetV3/expanded_conv_8/project/Conv2D_bn_offset", "shape": [80], "dtype": "float32"}, {"name": "StatefulPartitionedCall/StatefulPartitionedCall/predict/MobilenetV3/expanded_conv_9/expand/Conv2D_weights", "shape": [1, 1, 80, 184], "dtype": "float32"}, {"name": "StatefulPartitionedCall/StatefulPartitionedCall/predict/MobilenetV3/expanded_conv_9/expand/Conv2D_bn_offset", "shape": [184], "dtype": "float32"}, {"name": "StatefulPartitionedCall/StatefulPartitionedCall/predict/MobilenetV3/expanded_conv_9/depthwise/depthwise_weights", "shape": [3, 3, 184, 1], "dtype": "float32"}, {"name": "StatefulPartitionedCall/StatefulPartitionedCall/predict/MobilenetV3/expanded_conv_9/depthwise/depthwise_bn_offset", "shape": [184], "dtype": "float32"}, {"name": "StatefulPartitionedCall/StatefulPartitionedCall/predict/MobilenetV3/expanded_conv_9/project/Conv2D_weights", "shape": [1, 1, 184, 80], "dtype": "float32"}, {"name": "StatefulPartitionedCall/StatefulPartitionedCall/predict/MobilenetV3/expanded_conv_9/project/Conv2D_bn_offset", "shape": [80], "dtype": "float32"}, {"name": "StatefulPartitionedCall/StatefulPartitionedCall/predict/MobilenetV3/expanded_conv_10/expand/Conv2D_weights", "shape": [1, 1, 80, 480], "dtype": "float32"}, {"name": "StatefulPartitionedCall/StatefulPartitionedCall/predict/MobilenetV3/expanded_conv_10/expand/Conv2D_bn_offset", "shape": [480], "dtype": "float32"}, {"name": "StatefulPartitionedCall/StatefulPartitionedCall/predict/MobilenetV3/expanded_conv_10/depthwise/depthwise_weights", "shape": [3, 3, 480, 1], "dtype": "float32"}, {"name": "StatefulPartitionedCall/StatefulPartitionedCall/predict/MobilenetV3/expanded_conv_10/depthwise/depthwise_bn_offset", "shape": [480], "dtype": "float32"}, {"name": "StatefulPartitionedCall/StatefulPartitionedCall/predict/MobilenetV3/expanded_conv_10/project/Conv2D_weights", "shape": [1, 1, 480, 112], "dtype": "float32"}, {"name": "StatefulPartitionedCall/StatefulPartitionedCall/predict/MobilenetV3/expanded_conv_14/project/Conv2D_weights", "shape": [1, 1, 960, 160], "dtype": "float32"}, {"name": "StatefulPartitionedCall/StatefulPartitionedCall/predict/MobilenetV3/expanded_conv_10/project/Conv2D_bn_offset", "shape": [112], "dtype": "float32"}, {"name": "StatefulPartitionedCall/StatefulPartitionedCall/predict/MobilenetV3/expanded_conv_11/expand/Conv2D_weights", "shape": [1, 1, 112, 672], "dtype": "float32"}, {"name": "StatefulPartitionedCall/StatefulPartitionedCall/predict/MobilenetV3/expanded_conv_11/expand/Conv2D_bn_offset", "shape": [672], "dtype": "float32"}, {"name": "StatefulPartitionedCall/StatefulPartitionedCall/predict/MobilenetV3/expanded_conv_11/depthwise/depthwise_weights", "shape": [3, 3, 672, 1], "dtype": "float32"}, {"name": "StatefulPartitionedCall/StatefulPartitionedCall/predict/MobilenetV3/expanded_conv_11/depthwise/depthwise_bn_offset", "shape": [672], "dtype": "float32"}, {"name": "StatefulPartitionedCall/StatefulPartitionedCall/predict/MobilenetV3/expanded_conv_14/project/Conv2D_bn_offset", "shape": [160], "dtype": "float32"}, {"name": "StatefulPartitionedCall/StatefulPartitionedCall/predict/MobilenetV3/expanded_conv_11/project/Conv2D_weights", "shape": [1, 1, 672, 112], "dtype": "float32"}, {"name": "StatefulPartitionedCall/StatefulPartitionedCall/predict/MobilenetV3/Conv_1/Conv2D_weights", "shape": [1, 1, 160, 960], "dtype": "float32"}, {"name": "StatefulPartitionedCall/StatefulPartitionedCall/predict/MobilenetV3/expanded_conv_11/project/Conv2D_bn_offset", "shape": [112], "dtype": "float32"}, {"name": "StatefulPartitionedCall/StatefulPartitionedCall/predict/MobilenetV3/expanded_conv_12/expand/Conv2D_weights", "shape": [1, 1, 112, 672], "dtype": "float32"}, {"name": "StatefulPartitionedCall/StatefulPartitionedCall/predict/MobilenetV3/expanded_conv_12/expand/Conv2D_bn_offset", "shape": [672], "dtype": "float32"}, {"name": "StatefulPartitionedCall/StatefulPartitionedCall/predict/MobilenetV3/expanded_conv_12/depthwise/depthwise_weights", "shape": [5, 5, 672, 1], "dtype": "float32"}, {"name": "StatefulPartitionedCall/StatefulPartitionedCall/predict/MobilenetV3/expanded_conv_12/depthwise/depthwise_bn_offset", "shape": [672], "dtype": "float32"}, {"name": "StatefulPartitionedCall/StatefulPartitionedCall/predict/MobilenetV3/Conv_1/Conv2D_bn_offset", "shape": [960], "dtype": "float32"}, {"name": "StatefulPartitionedCall/StatefulPartitionedCall/predict/MobilenetV3/expanded_conv_12/project/Conv2D_weights", "shape": [1, 1, 672, 160], "dtype": "float32"}, {"name": "StatefulPartitionedCall/StatefulPartitionedCall/predict/MobilenetV3/expanded_conv_12/project/Conv2D_bn_offset", "shape": [160], "dtype": "float32"}, {"name": "StatefulPartitionedCall/StatefulPartitionedCall/predict/MobilenetV3/expanded_conv_13/expand/Conv2D_weights", "shape": [1, 1, 160, 960], "dtype": "float32"}, {"name": "StatefulPartitionedCall/StatefulPartitionedCall/predict/MobilenetV3/expanded_conv_13/expand/Conv2D_bn_offset", "shape": [960], "dtype": "float32"}, {"name": "StatefulPartitionedCall/StatefulPartitionedCall/predict/MobilenetV3/expanded_conv_13/depthwise/depthwise_weights", "shape": [5, 5, 960, 1], "dtype": "float32"}, {"name": "StatefulPartitionedCall/StatefulPartitionedCall/predict/MobilenetV3/expanded_conv_13/depthwise/depthwise_bn_offset", "shape": [960], "dtype": "float32"}, {"name": "StatefulPartitionedCall/StatefulPartitionedCall/predict/MobilenetV3/Conv_2/hard_swish/mul_1/y", "shape": [], "dtype": "float32"}, {"name": "StatefulPartitionedCall/StatefulPartitionedCall/predict/MobilenetV3/Conv_1/hard_swish/mul_1/y", "shape": [], "dtype": "float32"}, {"name": "StatefulPartitionedCall/StatefulPartitionedCall/predict/MobilenetV3/expanded_conv_14/squeeze_excite/Conv_1/mul/y", "shape": [], "dtype": "float32"}, {"name": "StatefulPartitionedCall/StatefulPartitionedCall/predict/MobilenetV3/expanded_conv_14/squeeze_excite/Mean/reduction_indices", "shape": [2], "dtype": "int32"}, {"name": "Func/StatefulPartitionedCall/StatefulPartitionedCall/input/_518", "shape": [1, 1, 960, 240], "dtype": "float32"}, {"name": "Func/StatefulPartitionedCall/StatefulPartitionedCall/input/_519", "shape": [240], "dtype": "float32"}, {"name": "Func/StatefulPartitionedCall/StatefulPartitionedCall/input/_520", "shape": [1, 1, 240, 960], "dtype": "float32"}, {"name": "Func/StatefulPartitionedCall/StatefulPartitionedCall/input/_521", "shape": [960], "dtype": "float32"}, {"name": "StatefulPartitionedCall/StatefulPartitionedCall/predict/MobilenetV3/expanded_conv_14/squeeze_excite/Conv_1/add/y", "shape": [], "dtype": "float32"}, {"name": "StatefulPartitionedCall/StatefulPartitionedCall/predict/MobilenetV3/expanded_conv_14/depthwise/hard_swish/mul_1/y", "shape": [], "dtype": "float32"}, {"name": "StatefulPartitionedCall/StatefulPartitionedCall/predict/MobilenetV3/expanded_conv_14/expand/hard_swish/mul_1/y", "shape": [], "dtype": "float32"}, {"name": "StatefulPartitionedCall/StatefulPartitionedCall/predict/MobilenetV3/expanded_conv_14/expand/hard_swish/add/y", "shape": [], "dtype": "float32"}, {"name": "StatefulPartitionedCall/StatefulPartitionedCall/predict/MobilenetV3/expanded_conv_14/depthwise/hard_swish/add/y", "shape": [], "dtype": "float32"}, {"name": "StatefulPartitionedCall/StatefulPartitionedCall/predict/MobilenetV3/expanded_conv_13/squeeze_excite/Conv_1/mul/y", "shape": [], "dtype": "float32"}, {"name": "StatefulPartitionedCall/StatefulPartitionedCall/predict/MobilenetV3/expanded_conv_13/squeeze_excite/Mean/reduction_indices", "shape": [2], "dtype": "int32"}, {"name": "Func/StatefulPartitionedCall/StatefulPartitionedCall/input/_499", "shape": [1, 1, 960, 240], "dtype": "float32"}, {"name": "Func/StatefulPartitionedCall/StatefulPartitionedCall/input/_500", "shape": [240], "dtype": "float32"}, {"name": "Func/StatefulPartitionedCall/StatefulPartitionedCall/input/_501", "shape": [1, 1, 240, 960], "dtype": "float32"}, {"name": "Func/StatefulPartitionedCall/StatefulPartitionedCall/input/_502", "shape": [960], "dtype": "float32"}, {"name": "StatefulPartitionedCall/StatefulPartitionedCall/predict/MobilenetV3/expanded_conv_13/squeeze_excite/Conv_1/add/y", "shape": [], "dtype": "float32"}, {"name": "StatefulPartitionedCall/StatefulPartitionedCall/predict/MobilenetV3/expanded_conv_13/depthwise/hard_swish/mul_1/y", "shape": [], "dtype": "float32"}, {"name": "StatefulPartitionedCall/StatefulPartitionedCall/predict/MobilenetV3/expanded_conv_13/expand/hard_swish/mul_1/y", "shape": [], "dtype": "float32"}, {"name": "StatefulPartitionedCall/StatefulPartitionedCall/predict/MobilenetV3/expanded_conv_13/expand/hard_swish/add/y", "shape": [], "dtype": "float32"}, {"name": "StatefulPartitionedCall/StatefulPartitionedCall/predict/MobilenetV3/expanded_conv_13/depthwise/hard_swish/add/y", "shape": [], "dtype": "float32"}, {"name": "StatefulPartitionedCall/StatefulPartitionedCall/predict/MobilenetV3/expanded_conv_12/squeeze_excite/Conv_1/mul/y", "shape": [], "dtype": "float32"}, {"name": "StatefulPartitionedCall/StatefulPartitionedCall/predict/MobilenetV3/expanded_conv_12/squeeze_excite/Mean/reduction_indices", "shape": [2], "dtype": "int32"}, {"name": "Func/StatefulPartitionedCall/StatefulPartitionedCall/input/_480", "shape": [1, 1, 672, 168], "dtype": "float32"}, {"name": "Func/StatefulPartitionedCall/StatefulPartitionedCall/input/_481", "shape": [168], "dtype": "float32"}, {"name": "Func/StatefulPartitionedCall/StatefulPartitionedCall/input/_482", "shape": [1, 1, 168, 672], "dtype": "float32"}, {"name": "Func/StatefulPartitionedCall/StatefulPartitionedCall/input/_483", "shape": [672], "dtype": "float32"}, {"name": "StatefulPartitionedCall/StatefulPartitionedCall/predict/MobilenetV3/expanded_conv_12/squeeze_excite/Conv_1/add/y", "shape": [], "dtype": "float32"}, {"name": "StatefulPartitionedCall/StatefulPartitionedCall/predict/MobilenetV3/expanded_conv_12/depthwise/hard_swish/mul_1/y", "shape": [], "dtype": "float32"}, {"name": "StatefulPartitionedCall/StatefulPartitionedCall/predict/MobilenetV3/expanded_conv_12/expand/hard_swish/mul_1/y", "shape": [], "dtype": "float32"}, {"name": "StatefulPartitionedCall/StatefulPartitionedCall/predict/MobilenetV3/expanded_conv_11/squeeze_excite/Conv_1/mul/y", "shape": [], "dtype": "float32"}, {"name": "StatefulPartitionedCall/StatefulPartitionedCall/predict/MobilenetV3/expanded_conv_11/squeeze_excite/Mean/reduction_indices", "shape": [2], "dtype": "int32"}, {"name": "Func/StatefulPartitionedCall/StatefulPartitionedCall/input/_461", "shape": [1, 1, 672, 168], "dtype": "float32"}, {"name": "Func/StatefulPartitionedCall/StatefulPartitionedCall/input/_462", "shape": [168], "dtype": "float32"}, {"name": "Func/StatefulPartitionedCall/StatefulPartitionedCall/input/_463", "shape": [1, 1, 168, 672], "dtype": "float32"}, {"name": "Func/StatefulPartitionedCall/StatefulPartitionedCall/input/_464", "shape": [672], "dtype": "float32"}, {"name": "StatefulPartitionedCall/StatefulPartitionedCall/predict/MobilenetV3/expanded_conv_11/squeeze_excite/Conv_1/add/y", "shape": [], "dtype": "float32"}, {"name": "StatefulPartitionedCall/StatefulPartitionedCall/predict/MobilenetV3/expanded_conv_11/depthwise/hard_swish/mul_1/y", "shape": [], "dtype": "float32"}, {"name": "StatefulPartitionedCall/StatefulPartitionedCall/predict/MobilenetV3/expanded_conv_11/expand/hard_swish/mul_1/y", "shape": [], "dtype": "float32"}, {"name": "StatefulPartitionedCall/StatefulPartitionedCall/predict/MobilenetV3/expanded_conv_11/expand/hard_swish/add/y", "shape": [], "dtype": "float32"}, {"name": "StatefulPartitionedCall/StatefulPartitionedCall/predict/MobilenetV3/expanded_conv_11/depthwise/hard_swish/add/y", "shape": [], "dtype": "float32"}, {"name": "StatefulPartitionedCall/StatefulPartitionedCall/predict/MobilenetV3/expanded_conv_10/squeeze_excite/Conv_1/mul/y", "shape": [], "dtype": "float32"}, {"name": "StatefulPartitionedCall/StatefulPartitionedCall/predict/MobilenetV3/expanded_conv_10/squeeze_excite/Mean/reduction_indices", "shape": [2], "dtype": "int32"}, {"name": "Func/StatefulPartitionedCall/StatefulPartitionedCall/input/_442", "shape": [1, 1, 480, 120], "dtype": "float32"}, {"name": "Func/StatefulPartitionedCall/StatefulPartitionedCall/input/_443", "shape": [120], "dtype": "float32"}, {"name": "Func/StatefulPartitionedCall/StatefulPartitionedCall/input/_444", "shape": [1, 1, 120, 480], "dtype": "float32"}, {"name": "Func/StatefulPartitionedCall/StatefulPartitionedCall/input/_445", "shape": [480], "dtype": "float32"}, {"name": "StatefulPartitionedCall/StatefulPartitionedCall/predict/MobilenetV3/expanded_conv_10/squeeze_excite/Conv_1/add/y", "shape": [], "dtype": "float32"}, {"name": "StatefulPartitionedCall/StatefulPartitionedCall/predict/MobilenetV3/expanded_conv_10/depthwise/hard_swish/mul_1/y", "shape": [], "dtype": "float32"}, {"name": "StatefulPartitionedCall/StatefulPartitionedCall/predict/MobilenetV3/expanded_conv_10/expand/hard_swish/mul_1/y", "shape": [], "dtype": "float32"}, {"name": "StatefulPartitionedCall/StatefulPartitionedCall/predict/MobilenetV3/expanded_conv_9/depthwise/hard_swish/mul_1/y", "shape": [], "dtype": "float32"}, {"name": "StatefulPartitionedCall/StatefulPartitionedCall/predict/MobilenetV3/expanded_conv_9/expand/hard_swish/mul_1/y", "shape": [], "dtype": "float32"}, {"name": "StatefulPartitionedCall/StatefulPartitionedCall/predict/MobilenetV3/expanded_conv_9/expand/hard_swish/add/y", "shape": [], "dtype": "float32"}, {"name": "StatefulPartitionedCall/StatefulPartitionedCall/predict/MobilenetV3/expanded_conv_9/depthwise/hard_swish/add/y", "shape": [], "dtype": "float32"}, {"name": "StatefulPartitionedCall/StatefulPartitionedCall/predict/MobilenetV3/expanded_conv_8/depthwise/hard_swish/mul_1/y", "shape": [], "dtype": "float32"}, {"name": "StatefulPartitionedCall/StatefulPartitionedCall/predict/MobilenetV3/expanded_conv_8/expand/hard_swish/mul_1/y", "shape": [], "dtype": "float32"}, {"name": "StatefulPartitionedCall/StatefulPartitionedCall/predict/MobilenetV3/expanded_conv_8/expand/hard_swish/add/y", "shape": [], "dtype": "float32"}, {"name": "StatefulPartitionedCall/StatefulPartitionedCall/predict/MobilenetV3/expanded_conv_8/depthwise/hard_swish/add/y", "shape": [], "dtype": "float32"}, {"name": "StatefulPartitionedCall/StatefulPartitionedCall/predict/MobilenetV3/expanded_conv_7/depthwise/hard_swish/mul_1/y", "shape": [], "dtype": "float32"}, {"name": "StatefulPartitionedCall/StatefulPartitionedCall/predict/MobilenetV3/expanded_conv_7/expand/hard_swish/mul_1/y", "shape": [], "dtype": "float32"}, {"name": "StatefulPartitionedCall/StatefulPartitionedCall/predict/MobilenetV3/expanded_conv_7/expand/hard_swish/add/y", "shape": [], "dtype": "float32"}, {"name": "StatefulPartitionedCall/StatefulPartitionedCall/predict/MobilenetV3/expanded_conv_7/depthwise/hard_swish/add/y", "shape": [], "dtype": "float32"}, {"name": "StatefulPartitionedCall/StatefulPartitionedCall/predict/MobilenetV3/expanded_conv_6/depthwise/hard_swish/mul_1/y", "shape": [], "dtype": "float32"}, {"name": "StatefulPartitionedCall/StatefulPartitionedCall/predict/MobilenetV3/expanded_conv_6/expand/hard_swish/mul_1/y", "shape": [], "dtype": "float32"}, {"name": "StatefulPartitionedCall/StatefulPartitionedCall/predict/MobilenetV3/expanded_conv_5/squeeze_excite/Conv_1/mul/y", "shape": [], "dtype": "float32"}, {"name": "StatefulPartitionedCall/StatefulPartitionedCall/predict/MobilenetV3/expanded_conv_5/squeeze_excite/Mean/reduction_indices", "shape": [2], "dtype": "int32"}, {"name": "Func/StatefulPartitionedCall/StatefulPartitionedCall/input/_363", "shape": [1, 1, 120, 32], "dtype": "float32"}, {"name": "Func/StatefulPartitionedCall/StatefulPartitionedCall/input/_364", "shape": [32], "dtype": "float32"}, {"name": "Func/StatefulPartitionedCall/StatefulPartitionedCall/input/_365", "shape": [1, 1, 32, 120], "dtype": "float32"}, {"name": "Func/StatefulPartitionedCall/StatefulPartitionedCall/input/_366", "shape": [120], "dtype": "float32"}, {"name": "StatefulPartitionedCall/StatefulPartitionedCall/predict/MobilenetV3/expanded_conv_5/squeeze_excite/Conv_1/add/y", "shape": [], "dtype": "float32"}, {"name": "StatefulPartitionedCall/StatefulPartitionedCall/predict/MobilenetV3/expanded_conv_4/squeeze_excite/Conv_1/mul/y", "shape": [], "dtype": "float32"}, {"name": "StatefulPartitionedCall/StatefulPartitionedCall/predict/MobilenetV3/expanded_conv_4/squeeze_excite/Mean/reduction_indices", "shape": [2], "dtype": "int32"}, {"name": "Func/StatefulPartitionedCall/StatefulPartitionedCall/input/_344", "shape": [1, 1, 120, 32], "dtype": "float32"}, {"name": "Func/StatefulPartitionedCall/StatefulPartitionedCall/input/_345", "shape": [32], "dtype": "float32"}, {"name": "Func/StatefulPartitionedCall/StatefulPartitionedCall/input/_346", "shape": [1, 1, 32, 120], "dtype": "float32"}, {"name": "Func/StatefulPartitionedCall/StatefulPartitionedCall/input/_347", "shape": [120], "dtype": "float32"}, {"name": "StatefulPartitionedCall/StatefulPartitionedCall/predict/MobilenetV3/expanded_conv_4/squeeze_excite/Conv_1/add/y", "shape": [], "dtype": "float32"}, {"name": "StatefulPartitionedCall/StatefulPartitionedCall/predict/MobilenetV3/expanded_conv_3/squeeze_excite/Conv_1/mul/y", "shape": [], "dtype": "float32"}, {"name": "StatefulPartitionedCall/StatefulPartitionedCall/predict/MobilenetV3/expanded_conv_3/squeeze_excite/Mean/reduction_indices", "shape": [2], "dtype": "int32"}, {"name": "Func/StatefulPartitionedCall/StatefulPartitionedCall/input/_325", "shape": [1, 1, 72, 24], "dtype": "float32"}, {"name": "Func/StatefulPartitionedCall/StatefulPartitionedCall/input/_326", "shape": [24], "dtype": "float32"}, {"name": "Func/StatefulPartitionedCall/StatefulPartitionedCall/input/_327", "shape": [1, 1, 24, 72], "dtype": "float32"}, {"name": "Func/StatefulPartitionedCall/StatefulPartitionedCall/input/_328", "shape": [72], "dtype": "float32"}, {"name": "StatefulPartitionedCall/StatefulPartitionedCall/predict/MobilenetV3/expanded_conv_3/squeeze_excite/Conv_1/add/y", "shape": [], "dtype": "float32"}, {"name": "StatefulPartitionedCall/StatefulPartitionedCall/predict/MobilenetV3/Conv/hard_swish/mul_1/y", "shape": [], "dtype": "float32"}, {"name": "StatefulPartitionedCall/StatefulPartitionedCall/predict/hub_input/Mul/y", "shape": [], "dtype": "float32"}, {"name": "StatefulPartitionedCall/StatefulPartitionedCall/predict/hub_input/Sub/y", "shape": [], "dtype": "float32"}, {"name": "StatefulPartitionedCall/StatefulPartitionedCall/predict/MobilenetV3/Conv/hard_swish/add/y", "shape": [], "dtype": "float32"}, {"name": "StatefulPartitionedCall/StatefulPartitionedCall/predict/MobilenetV3/expanded_conv_6/expand/hard_swish/add/y", "shape": [], "dtype": "float32"}, {"name": "StatefulPartitionedCall/StatefulPartitionedCall/predict/MobilenetV3/expanded_conv_6/depthwise/hard_swish/add/y", "shape": [], "dtype": "float32"}, {"name": "StatefulPartitionedCall/StatefulPartitionedCall/predict/MobilenetV3/expanded_conv_10/expand/hard_swish/add/y", "shape": [], "dtype": "float32"}, {"name": "StatefulPartitionedCall/StatefulPartitionedCall/predict/MobilenetV3/expanded_conv_10/depthwise/hard_swish/add/y", "shape": [], "dtype": "float32"}, {"name": "StatefulPartitionedCall/StatefulPartitionedCall/predict/MobilenetV3/expanded_conv_12/expand/hard_swish/add/y", "shape": [], "dtype": "float32"}, {"name": "StatefulPartitionedCall/StatefulPartitionedCall/predict/MobilenetV3/expanded_conv_12/depthwise/hard_swish/add/y", "shape": [], "dtype": "float32"}, {"name": "StatefulPartitionedCall/StatefulPartitionedCall/predict/MobilenetV3/Conv_1/hard_swish/add/y", "shape": [], "dtype": "float32"}, {"name": "Func/StatefulPartitionedCall/StatefulPartitionedCall/input/_532", "shape": [1, 1, 960, 1280], "dtype": "float32"}, {"name": "Func/StatefulPartitionedCall/StatefulPartitionedCall/input/_533", "shape": [1280], "dtype": "float32"}, {"name": "StatefulPartitionedCall/StatefulPartitionedCall/predict/MobilenetV3/Conv_2/hard_swish/add/y", "shape": [], "dtype": "float32"}]}]}